…
/vol/joberant_nobck/data/NLP_368307701_2223/giladd/ft-vs-icl/struprompting/tasks/fewshot_task.py:163: VisibleDeprecationWarning: Creating an ndarray from ragged nested sequences (which is a list-or-tuple of lists-or-tuples-or ndarrays with different lengths or shapes) is deprecated. If you meant to do this, you must specify 'dtype=object' when creating the ndarray.
  return np.array(src_tokens), np.array(gpt_loss_mask), np.array(labels), max_len
2023-09-14 23:39:48 | WARNING | fairseq.models.fairseq_model | using 'args' is deprecated, please update your code to use dataclass config
2023-09-14 23:39:49 | INFO | fairseq_cli.train | TransformerLanguageModel(
  (decoder): GPTDecoder(
    (dropout_module): FairseqDropout()
    (embed_tokens): Embedding(51200, 2048, padding_idx=1)
    (embed_positions): SinusoidalPositionalEmbedding()
    (layers): ModuleList(
      (0-23): 24 x TransformerDecoderLayerBase(
        (dropout_module): FairseqDropout()
        (self_attn): MultiheadAttention(
          (dropout_module): FairseqDropout()
          (k_proj): Linear(in_features=2048, out_features=2048, bias=True)
          (v_proj): Linear(in_features=2048, out_features=2048, bias=True)
          (q_proj): Linear(in_features=2048, out_features=2048, bias=True)
          (out_proj): Linear(in_features=2048, out_features=2048, bias=True)
        )
        (activation_dropout_module): FairseqDropout()
        (self_attn_layer_norm): LayerNorm((2048,), eps=1e-05, elementwise_affine=True)
        (fc1): Linear(in_features=2048, out_features=8192, bias=True)
        (fc2): Linear(in_features=8192, out_features=2048, bias=True)
        (final_layer_norm): LayerNorm((2048,), eps=1e-05, elementwise_affine=True)
      )
    )
    (layer_norm): LayerNorm((2048,), eps=1e-05, elementwise_affine=True)
    (output_projection): Linear(in_features=2048, out_features=51200, bias=False)
  )
)
2023-09-14 23:39:49 | INFO | fairseq_cli.train | task: FewshotEval
2023-09-14 23:39:49 | INFO | fairseq_cli.train | model: TransformerLanguageModel
2023-09-14 23:39:49 | INFO | fairseq_cli.train | criterion: FewshotFTCriterion
2023-09-14 23:39:49 | INFO | fairseq_cli.train | num. shared model params: 1,313,460,224 (num. trained: 1,313,460,224)
…
