…
/vol/joberant_nobck/data/NLP_368307701_2223/giladd/ft-vs-icl/struprompting/tasks/fewshot_task.py:163: VisibleDeprecationWarning: Creating an ndarray from ragged nested sequences (which is a list-or-tuple of lists-or-tuples-or ndarrays with different lengths or shapes) is deprecated. If you meant to do this, you must specify 'dtype=object' when creating the ndarray.
  return np.array(src_tokens), np.array(gpt_loss_mask), np.array(labels), max_len
2023-09-14 11:29:27 | WARNING | fairseq.models.fairseq_model | using 'args' is deprecated, please update your code to use dataclass config
2023-09-14 11:29:29 | INFO | fairseq_cli.train | TransformerLanguageModel(
  (decoder): GPTDecoder(
    (dropout_module): FairseqDropout()
    (embed_tokens): Embedding(51200, 2048, padding_idx=1)
    (embed_positions): SinusoidalPositionalEmbedding()
    (layers): ModuleList(
      (0-23): 24 x TransformerDecoderLayerBase(
        (dropout_module): FairseqDropout()
        (self_attn): MultiheadAttention(
          (dropout_module): FairseqDropout()
          (k_proj): Linear(in_features=2048, out_features=2048, bias=True)
          (v_proj): Linear(in_features=2048, out_features=2048, bias=True)
          (q_proj): Linear(in_features=2048, out_features=2048, bias=True)
          (out_proj): Linear(in_features=2048, out_features=2048, bias=True)
        )
        (activation_dropout_module): FairseqDropout()
        (self_attn_layer_norm): LayerNorm((2048,), eps=1e-05, elementwise_affine=True)
        (fc1): Linear(in_features=2048, out_features=8192, bias=True)
        (fc2): Linear(in_features=8192, out_features=2048, bias=True)
        (final_layer_norm): LayerNorm((2048,), eps=1e-05, elementwise_affine=True)
      )
    )
    (layer_norm): LayerNorm((2048,), eps=1e-05, elementwise_affine=True)
    (output_projection): Linear(in_features=2048, out_features=51200, bias=False)
  )
)
2023-09-14 11:29:29 | INFO | fairseq_cli.train | task: FewshotEval
2023-09-14 11:29:29 | INFO | fairseq_cli.train | model: TransformerLanguageModel
2023-09-14 11:29:29 | INFO | fairseq_cli.train | criterion: FewshotFTCriterion
2023-09-14 11:29:29 | INFO | fairseq_cli.train | num. shared model params: 1,313,460,224 (num. trained: 1,313,460,224)
…
------------ example 1 label str train is [' objective', ' subjective']
NOTE: true K of baseline is 32
| Loaded valid with 4000 samples
| Loaded train with 32 samples
/vol/joberant_nobck/data/NLP_368307701_2223/giladd/ft-vs-icl/fairseq/fairseq/utils.py:374: UserWarning: amp_C fused kernels unavailable, disabling multi_tensor_l2norm; you may get better performance by installing NVIDIA's apex library
  warnings.warn(
2023-09-14 11:29:44 | INFO | fairseq.trainer | layer TransformerDecoderLayerBase(
  (dropout_module): FairseqDropout()
  (self_attn): MultiheadAttention(
    (dropout_module): FairseqDropout()
    (k_proj): Linear(in_features=2048, out_features=2048, bias=True)
    (v_proj): Linear(in_features=2048, out_features=2048, bias=True)
    (q_proj): Linear(in_features=2048, out_features=2048, bias=True)
    (out_proj): Linear(in_features=2048, out_features=2048, bias=True)
  )
  (activation_dropout_module): FairseqDropout()
  (self_attn_layer_norm): LayerNorm((2048,), eps=1e-05, elementwise_affine=True)
  (fc1): Linear(in_features=2048, out_features=8192, bias=True)
  (fc2): Linear(in_features=8192, out_features=2048, bias=True)
  (final_layer_norm): LayerNorm((2048,), eps=1e-05, elementwise_affine=True)
) total_norm 10546.9794921875
2023-09-14 11:29:44 | INFO | fairseq.trainer | layer TransformerDecoderLayerBase(
  (dropout_module): FairseqDropout()
  (self_attn): MultiheadAttention(
    (dropout_module): FairseqDropout()
    (k_proj): Linear(in_features=2048, out_features=2048, bias=True)
    (v_proj): Linear(in_features=2048, out_features=2048, bias=True)
    (q_proj): Linear(in_features=2048, out_features=2048, bias=True)
    (out_proj): Linear(in_features=2048, out_features=2048, bias=True)
  )
  (activation_dropout_module): FairseqDropout()
  (self_attn_layer_norm): LayerNorm((2048,), eps=1e-05, elementwise_affine=True)
  (fc1): Linear(in_features=2048, out_features=8192, bias=True)
  (fc2): Linear(in_features=8192, out_features=2048, bias=True)
  (final_layer_norm): LayerNorm((2048,), eps=1e-05, elementwise_affine=True)
) total_norm 7524.59814453125
2023-09-14 11:29:44 | INFO | fairseq.trainer | layer TransformerDecoderLayerBase(
  (dropout_module): FairseqDropout()
  (self_attn): MultiheadAttention(
    (dropout_module): FairseqDropout()
    (k_proj): Linear(in_features=2048, out_features=2048, bias=True)
    (v_proj): Linear(in_features=2048, out_features=2048, bias=True)
    (q_proj): Linear(in_features=2048, out_features=2048, bias=True)
    (out_proj): Linear(in_features=2048, out_features=2048, bias=True)
  )
  (activation_dropout_module): FairseqDropout()
  (self_attn_layer_norm): LayerNorm((2048,), eps=1e-05, elementwise_affine=True)
  (fc1): Linear(in_features=2048, out_features=8192, bias=True)
  (fc2): Linear(in_features=8192, out_features=2048, bias=True)
  (final_layer_norm): LayerNorm((2048,), eps=1e-05, elementwise_affine=True)
) total_norm 4540.81005859375
2023-09-14 11:29:44 | INFO | fairseq.trainer | layer TransformerDecoderLayerBase(
  (dropout_module): FairseqDropout()
  (self_attn): MultiheadAttention(
    (dropout_module): FairseqDropout()
    (k_proj): Linear(in_features=2048, out_features=2048, bias=True)
    (v_proj): Linear(in_features=2048, out_features=2048, bias=True)
    (q_proj): Linear(in_features=2048, out_features=2048, bias=True)
    (out_proj): Linear(in_features=2048, out_features=2048, bias=True)
  )
  (activation_dropout_module): FairseqDropout()
  (self_attn_layer_norm): LayerNorm((2048,), eps=1e-05, elementwise_affine=True)
  (fc1): Linear(in_features=2048, out_features=8192, bias=True)
  (fc2): Linear(in_features=8192, out_features=2048, bias=True)
  (final_layer_norm): LayerNorm((2048,), eps=1e-05, elementwise_affine=True)
) total_norm 3687.95654296875
2023-09-14 11:29:44 | INFO | fairseq.trainer | layer TransformerDecoderLayerBase(
  (dropout_module): FairseqDropout()
  (self_attn): MultiheadAttention(
    (dropout_module): FairseqDropout()
    (k_proj): Linear(in_features=2048, out_features=2048, bias=True)
    (v_proj): Linear(in_features=2048, out_features=2048, bias=True)
    (q_proj): Linear(in_features=2048, out_features=2048, bias=True)
    (out_proj): Linear(in_features=2048, out_features=2048, bias=True)
  )
  (activation_dropout_module): FairseqDropout()
  (self_attn_layer_norm): LayerNorm((2048,), eps=1e-05, elementwise_affine=True)
  (fc1): Linear(in_features=2048, out_features=8192, bias=True)
  (fc2): Linear(in_features=8192, out_features=2048, bias=True)
  (final_layer_norm): LayerNorm((2048,), eps=1e-05, elementwise_affine=True)
) total_norm 2806.513671875
2023-09-14 11:29:44 | INFO | fairseq.trainer | layer TransformerDecoderLayerBase(
  (dropout_module): FairseqDropout()
  (self_attn): MultiheadAttention(
    (dropout_module): FairseqDropout()
    (k_proj): Linear(in_features=2048, out_features=2048, bias=True)
    (v_proj): Linear(in_features=2048, out_features=2048, bias=True)
    (q_proj): Linear(in_features=2048, out_features=2048, bias=True)
    (out_proj): Linear(in_features=2048, out_features=2048, bias=True)
  )
  (activation_dropout_module): FairseqDropout()
  (self_attn_layer_norm): LayerNorm((2048,), eps=1e-05, elementwise_affine=True)
  (fc1): Linear(in_features=2048, out_features=8192, bias=True)
  (fc2): Linear(in_features=8192, out_features=2048, bias=True)
  (final_layer_norm): LayerNorm((2048,), eps=1e-05, elementwise_affine=True)
) total_norm 2089.436767578125
2023-09-14 11:29:44 | INFO | fairseq.trainer | layer TransformerDecoderLayerBase(
  (dropout_module): FairseqDropout()
  (self_attn): MultiheadAttention(
    (dropout_module): FairseqDropout()
    (k_proj): Linear(in_features=2048, out_features=2048, bias=True)
    (v_proj): Linear(in_features=2048, out_features=2048, bias=True)
    (q_proj): Linear(in_features=2048, out_features=2048, bias=True)
    (out_proj): Linear(in_features=2048, out_features=2048, bias=True)
  )
  (activation_dropout_module): FairseqDropout()
  (self_attn_layer_norm): LayerNorm((2048,), eps=1e-05, elementwise_affine=True)
  (fc1): Linear(in_features=2048, out_features=8192, bias=True)
  (fc2): Linear(in_features=8192, out_features=2048, bias=True)
  (final_layer_norm): LayerNorm((2048,), eps=1e-05, elementwise_affine=True)
) total_norm 1415.8533935546875
2023-09-14 11:29:44 | INFO | fairseq.trainer | layer TransformerDecoderLayerBase(
  (dropout_module): FairseqDropout()
  (self_attn): MultiheadAttention(
    (dropout_module): FairseqDropout()
    (k_proj): Linear(in_features=2048, out_features=2048, bias=True)
    (v_proj): Linear(in_features=2048, out_features=2048, bias=True)
    (q_proj): Linear(in_features=2048, out_features=2048, bias=True)
    (out_proj): Linear(in_features=2048, out_features=2048, bias=True)
  )
  (activation_dropout_module): FairseqDropout()
  (self_attn_layer_norm): LayerNorm((2048,), eps=1e-05, elementwise_affine=True)
  (fc1): Linear(in_features=2048, out_features=8192, bias=True)
  (fc2): Linear(in_features=8192, out_features=2048, bias=True)
  (final_layer_norm): LayerNorm((2048,), eps=1e-05, elementwise_affine=True)
) total_norm 1029.4986572265625
2023-09-14 11:29:44 | INFO | fairseq.trainer | layer TransformerDecoderLayerBase(
  (dropout_module): FairseqDropout()
  (self_attn): MultiheadAttention(
    (dropout_module): FairseqDropout()
    (k_proj): Linear(in_features=2048, out_features=2048, bias=True)
    (v_proj): Linear(in_features=2048, out_features=2048, bias=True)
    (q_proj): Linear(in_features=2048, out_features=2048, bias=True)
    (out_proj): Linear(in_features=2048, out_features=2048, bias=True)
  )
  (activation_dropout_module): FairseqDropout()
  (self_attn_layer_norm): LayerNorm((2048,), eps=1e-05, elementwise_affine=True)
  (fc1): Linear(in_features=2048, out_features=8192, bias=True)
  (fc2): Linear(in_features=8192, out_features=2048, bias=True)
  (final_layer_norm): LayerNorm((2048,), eps=1e-05, elementwise_affine=True)
) total_norm 850.216064453125
2023-09-14 11:29:44 | INFO | fairseq.trainer | layer TransformerDecoderLayerBase(
  (dropout_module): FairseqDropout()
  (self_attn): MultiheadAttention(
    (dropout_module): FairseqDropout()
    (k_proj): Linear(in_features=2048, out_features=2048, bias=True)
    (v_proj): Linear(in_features=2048, out_features=2048, bias=True)
    (q_proj): Linear(in_features=2048, out_features=2048, bias=True)
    (out_proj): Linear(in_features=2048, out_features=2048, bias=True)
  )
  (activation_dropout_module): FairseqDropout()
  (self_attn_layer_norm): LayerNorm((2048,), eps=1e-05, elementwise_affine=True)
  (fc1): Linear(in_features=2048, out_features=8192, bias=True)
  (fc2): Linear(in_features=8192, out_features=2048, bias=True)
  (final_layer_norm): LayerNorm((2048,), eps=1e-05, elementwise_affine=True)
) total_norm 722.7949829101562
2023-09-14 11:29:44 | INFO | fairseq.trainer | layer TransformerDecoderLayerBase(
  (dropout_module): FairseqDropout()
  (self_attn): MultiheadAttention(
    (dropout_module): FairseqDropout()
    (k_proj): Linear(in_features=2048, out_features=2048, bias=True)
    (v_proj): Linear(in_features=2048, out_features=2048, bias=True)
    (q_proj): Linear(in_features=2048, out_features=2048, bias=True)
    (out_proj): Linear(in_features=2048, out_features=2048, bias=True)
  )
  (activation_dropout_module): FairseqDropout()
  (self_attn_layer_norm): LayerNorm((2048,), eps=1e-05, elementwise_affine=True)
  (fc1): Linear(in_features=2048, out_features=8192, bias=True)
  (fc2): Linear(in_features=8192, out_features=2048, bias=True)
  (final_layer_norm): LayerNorm((2048,), eps=1e-05, elementwise_affine=True)
) total_norm 641.5740966796875
2023-09-14 11:29:44 | INFO | fairseq.trainer | layer TransformerDecoderLayerBase(
  (dropout_module): FairseqDropout()
  (self_attn): MultiheadAttention(
    (dropout_module): FairseqDropout()
    (k_proj): Linear(in_features=2048, out_features=2048, bias=True)
    (v_proj): Linear(in_features=2048, out_features=2048, bias=True)
    (q_proj): Linear(in_features=2048, out_features=2048, bias=True)
    (out_proj): Linear(in_features=2048, out_features=2048, bias=True)
  )
  (activation_dropout_module): FairseqDropout()
  (self_attn_layer_norm): LayerNorm((2048,), eps=1e-05, elementwise_affine=True)
  (fc1): Linear(in_features=2048, out_features=8192, bias=True)
  (fc2): Linear(in_features=8192, out_features=2048, bias=True)
  (final_layer_norm): LayerNorm((2048,), eps=1e-05, elementwise_affine=True)
) total_norm 566.9934692382812
2023-09-14 11:29:44 | INFO | fairseq.trainer | layer TransformerDecoderLayerBase(
  (dropout_module): FairseqDropout()
  (self_attn): MultiheadAttention(
    (dropout_module): FairseqDropout()
    (k_proj): Linear(in_features=2048, out_features=2048, bias=True)
    (v_proj): Linear(in_features=2048, out_features=2048, bias=True)
    (q_proj): Linear(in_features=2048, out_features=2048, bias=True)
    (out_proj): Linear(in_features=2048, out_features=2048, bias=True)
  )
  (activation_dropout_module): FairseqDropout()
  (self_attn_layer_norm): LayerNorm((2048,), eps=1e-05, elementwise_affine=True)
  (fc1): Linear(in_features=2048, out_features=8192, bias=True)
  (fc2): Linear(in_features=8192, out_features=2048, bias=True)
  (final_layer_norm): LayerNorm((2048,), eps=1e-05, elementwise_affine=True)
) total_norm 465.8963928222656
2023-09-14 11:29:44 | INFO | fairseq.trainer | layer TransformerDecoderLayerBase(
  (dropout_module): FairseqDropout()
  (self_attn): MultiheadAttention(
    (dropout_module): FairseqDropout()
    (k_proj): Linear(in_features=2048, out_features=2048, bias=True)
    (v_proj): Linear(in_features=2048, out_features=2048, bias=True)
    (q_proj): Linear(in_features=2048, out_features=2048, bias=True)
    (out_proj): Linear(in_features=2048, out_features=2048, bias=True)
  )
  (activation_dropout_module): FairseqDropout()
  (self_attn_layer_norm): LayerNorm((2048,), eps=1e-05, elementwise_affine=True)
  (fc1): Linear(in_features=2048, out_features=8192, bias=True)
  (fc2): Linear(in_features=8192, out_features=2048, bias=True)
  (final_layer_norm): LayerNorm((2048,), eps=1e-05, elementwise_affine=True)
) total_norm 413.6326904296875
2023-09-14 11:29:44 | INFO | fairseq.trainer | layer TransformerDecoderLayerBase(
  (dropout_module): FairseqDropout()
  (self_attn): MultiheadAttention(
    (dropout_module): FairseqDropout()
    (k_proj): Linear(in_features=2048, out_features=2048, bias=True)
    (v_proj): Linear(in_features=2048, out_features=2048, bias=True)
    (q_proj): Linear(in_features=2048, out_features=2048, bias=True)
    (out_proj): Linear(in_features=2048, out_features=2048, bias=True)
  )
  (activation_dropout_module): FairseqDropout()
  (self_attn_layer_norm): LayerNorm((2048,), eps=1e-05, elementwise_affine=True)
  (fc1): Linear(in_features=2048, out_features=8192, bias=True)
  (fc2): Linear(in_features=8192, out_features=2048, bias=True)
  (final_layer_norm): LayerNorm((2048,), eps=1e-05, elementwise_affine=True)
) total_norm 401.623046875
2023-09-14 11:29:44 | INFO | fairseq.trainer | layer TransformerDecoderLayerBase(
  (dropout_module): FairseqDropout()
  (self_attn): MultiheadAttention(
    (dropout_module): FairseqDropout()
    (k_proj): Linear(in_features=2048, out_features=2048, bias=True)
    (v_proj): Linear(in_features=2048, out_features=2048, bias=True)
    (q_proj): Linear(in_features=2048, out_features=2048, bias=True)
    (out_proj): Linear(in_features=2048, out_features=2048, bias=True)
  )
  (activation_dropout_module): FairseqDropout()
  (self_attn_layer_norm): LayerNorm((2048,), eps=1e-05, elementwise_affine=True)
  (fc1): Linear(in_features=2048, out_features=8192, bias=True)
  (fc2): Linear(in_features=8192, out_features=2048, bias=True)
  (final_layer_norm): LayerNorm((2048,), eps=1e-05, elementwise_affine=True)
) total_norm 436.97784423828125
2023-09-14 11:29:44 | INFO | fairseq.trainer | layer TransformerDecoderLayerBase(
  (dropout_module): FairseqDropout()
  (self_attn): MultiheadAttention(
    (dropout_module): FairseqDropout()
    (k_proj): Linear(in_features=2048, out_features=2048, bias=True)
    (v_proj): Linear(in_features=2048, out_features=2048, bias=True)
    (q_proj): Linear(in_features=2048, out_features=2048, bias=True)
    (out_proj): Linear(in_features=2048, out_features=2048, bias=True)
  )
  (activation_dropout_module): FairseqDropout()
  (self_attn_layer_norm): LayerNorm((2048,), eps=1e-05, elementwise_affine=True)
  (fc1): Linear(in_features=2048, out_features=8192, bias=True)
  (fc2): Linear(in_features=8192, out_features=2048, bias=True)
  (final_layer_norm): LayerNorm((2048,), eps=1e-05, elementwise_affine=True)
) total_norm 433.2509765625
2023-09-14 11:29:44 | INFO | fairseq.trainer | layer TransformerDecoderLayerBase(
  (dropout_module): FairseqDropout()
  (self_attn): MultiheadAttention(
    (dropout_module): FairseqDropout()
    (k_proj): Linear(in_features=2048, out_features=2048, bias=True)
    (v_proj): Linear(in_features=2048, out_features=2048, bias=True)
    (q_proj): Linear(in_features=2048, out_features=2048, bias=True)
    (out_proj): Linear(in_features=2048, out_features=2048, bias=True)
  )
  (activation_dropout_module): FairseqDropout()
  (self_attn_layer_norm): LayerNorm((2048,), eps=1e-05, elementwise_affine=True)
  (fc1): Linear(in_features=2048, out_features=8192, bias=True)
  (fc2): Linear(in_features=8192, out_features=2048, bias=True)
  (final_layer_norm): LayerNorm((2048,), eps=1e-05, elementwise_affine=True)
) total_norm 464.65423583984375
2023-09-14 11:29:44 | INFO | fairseq.trainer | layer TransformerDecoderLayerBase(
  (dropout_module): FairseqDropout()
  (self_attn): MultiheadAttention(
    (dropout_module): FairseqDropout()
    (k_proj): Linear(in_features=2048, out_features=2048, bias=True)
    (v_proj): Linear(in_features=2048, out_features=2048, bias=True)
    (q_proj): Linear(in_features=2048, out_features=2048, bias=True)
    (out_proj): Linear(in_features=2048, out_features=2048, bias=True)
  )
  (activation_dropout_module): FairseqDropout()
  (self_attn_layer_norm): LayerNorm((2048,), eps=1e-05, elementwise_affine=True)
  (fc1): Linear(in_features=2048, out_features=8192, bias=True)
  (fc2): Linear(in_features=8192, out_features=2048, bias=True)
  (final_layer_norm): LayerNorm((2048,), eps=1e-05, elementwise_affine=True)
) total_norm 398.6169738769531
2023-09-14 11:29:44 | INFO | fairseq.trainer | layer TransformerDecoderLayerBase(
  (dropout_module): FairseqDropout()
  (self_attn): MultiheadAttention(
    (dropout_module): FairseqDropout()
    (k_proj): Linear(in_features=2048, out_features=2048, bias=True)
    (v_proj): Linear(in_features=2048, out_features=2048, bias=True)
    (q_proj): Linear(in_features=2048, out_features=2048, bias=True)
    (out_proj): Linear(in_features=2048, out_features=2048, bias=True)
  )
  (activation_dropout_module): FairseqDropout()
  (self_attn_layer_norm): LayerNorm((2048,), eps=1e-05, elementwise_affine=True)
  (fc1): Linear(in_features=2048, out_features=8192, bias=True)
  (fc2): Linear(in_features=8192, out_features=2048, bias=True)
  (final_layer_norm): LayerNorm((2048,), eps=1e-05, elementwise_affine=True)
) total_norm 340.4513854980469
2023-09-14 11:29:44 | INFO | fairseq.trainer | layer TransformerDecoderLayerBase(
  (dropout_module): FairseqDropout()
  (self_attn): MultiheadAttention(
    (dropout_module): FairseqDropout()
    (k_proj): Linear(in_features=2048, out_features=2048, bias=True)
    (v_proj): Linear(in_features=2048, out_features=2048, bias=True)
    (q_proj): Linear(in_features=2048, out_features=2048, bias=True)
    (out_proj): Linear(in_features=2048, out_features=2048, bias=True)
  )
  (activation_dropout_module): FairseqDropout()
  (self_attn_layer_norm): LayerNorm((2048,), eps=1e-05, elementwise_affine=True)
  (fc1): Linear(in_features=2048, out_features=8192, bias=True)
  (fc2): Linear(in_features=8192, out_features=2048, bias=True)
  (final_layer_norm): LayerNorm((2048,), eps=1e-05, elementwise_affine=True)
) total_norm 297.805908203125
2023-09-14 11:29:44 | INFO | fairseq.trainer | layer TransformerDecoderLayerBase(
  (dropout_module): FairseqDropout()
  (self_attn): MultiheadAttention(
    (dropout_module): FairseqDropout()
    (k_proj): Linear(in_features=2048, out_features=2048, bias=True)
    (v_proj): Linear(in_features=2048, out_features=2048, bias=True)
    (q_proj): Linear(in_features=2048, out_features=2048, bias=True)
    (out_proj): Linear(in_features=2048, out_features=2048, bias=True)
  )
  (activation_dropout_module): FairseqDropout()
  (self_attn_layer_norm): LayerNorm((2048,), eps=1e-05, elementwise_affine=True)
  (fc1): Linear(in_features=2048, out_features=8192, bias=True)
  (fc2): Linear(in_features=8192, out_features=2048, bias=True)
  (final_layer_norm): LayerNorm((2048,), eps=1e-05, elementwise_affine=True)
) total_norm 305.49041748046875
2023-09-14 11:29:44 | INFO | fairseq.trainer | layer TransformerDecoderLayerBase(
  (dropout_module): FairseqDropout()
  (self_attn): MultiheadAttention(
    (dropout_module): FairseqDropout()
    (k_proj): Linear(in_features=2048, out_features=2048, bias=True)
    (v_proj): Linear(in_features=2048, out_features=2048, bias=True)
    (q_proj): Linear(in_features=2048, out_features=2048, bias=True)
    (out_proj): Linear(in_features=2048, out_features=2048, bias=True)
  )
  (activation_dropout_module): FairseqDropout()
  (self_attn_layer_norm): LayerNorm((2048,), eps=1e-05, elementwise_affine=True)
  (fc1): Linear(in_features=2048, out_features=8192, bias=True)
  (fc2): Linear(in_features=8192, out_features=2048, bias=True)
  (final_layer_norm): LayerNorm((2048,), eps=1e-05, elementwise_affine=True)
) total_norm 305.53082275390625
2023-09-14 11:29:44 | INFO | fairseq.trainer | layer TransformerDecoderLayerBase(
  (dropout_module): FairseqDropout()
  (self_attn): MultiheadAttention(
    (dropout_module): FairseqDropout()
    (k_proj): Linear(in_features=2048, out_features=2048, bias=True)
    (v_proj): Linear(in_features=2048, out_features=2048, bias=True)
    (q_proj): Linear(in_features=2048, out_features=2048, bias=True)
    (out_proj): Linear(in_features=2048, out_features=2048, bias=True)
  )
  (activation_dropout_module): FairseqDropout()
  (self_attn_layer_norm): LayerNorm((2048,), eps=1e-05, elementwise_affine=True)
  (fc1): Linear(in_features=2048, out_features=8192, bias=True)
  (fc2): Linear(in_features=8192, out_features=2048, bias=True)
  (final_layer_norm): LayerNorm((2048,), eps=1e-05, elementwise_affine=True)
) total_norm 495.401611328125
2023-09-14 11:29:44 | INFO | train_inner | epoch 001:      1 / 32 loss=490.281, sample_size=28, ntokens=29, wps=0, ups=0, wpb=29, bsz=1, num_updates=1, lr=0.003, gnorm=38.702, clip=100, loss_scale=4, train_wall=7, gb_free=17.3, wall=8
2023-09-14 11:29:46 | INFO | fairseq.trainer | layer TransformerDecoderLayerBase(
  (dropout_module): FairseqDropout()
  (self_attn): MultiheadAttention(
    (dropout_module): FairseqDropout()
    (k_proj): Linear(in_features=2048, out_features=2048, bias=True)
    (v_proj): Linear(in_features=2048, out_features=2048, bias=True)
    (q_proj): Linear(in_features=2048, out_features=2048, bias=True)
    (out_proj): Linear(in_features=2048, out_features=2048, bias=True)
  )
  (activation_dropout_module): FairseqDropout()
  (self_attn_layer_norm): LayerNorm((2048,), eps=1e-05, elementwise_affine=True)
  (fc1): Linear(in_features=2048, out_features=8192, bias=True)
  (fc2): Linear(in_features=8192, out_features=2048, bias=True)
  (final_layer_norm): LayerNorm((2048,), eps=1e-05, elementwise_affine=True)
) total_norm 6431.36767578125
2023-09-14 11:29:46 | INFO | fairseq.trainer | layer TransformerDecoderLayerBase(
  (dropout_module): FairseqDropout()
  (self_attn): MultiheadAttention(
    (dropout_module): FairseqDropout()
    (k_proj): Linear(in_features=2048, out_features=2048, bias=True)
    (v_proj): Linear(in_features=2048, out_features=2048, bias=True)
    (q_proj): Linear(in_features=2048, out_features=2048, bias=True)
    (out_proj): Linear(in_features=2048, out_features=2048, bias=True)
  )
  (activation_dropout_module): FairseqDropout()
  (self_attn_layer_norm): LayerNorm((2048,), eps=1e-05, elementwise_affine=True)
  (fc1): Linear(in_features=2048, out_features=8192, bias=True)
  (fc2): Linear(in_features=8192, out_features=2048, bias=True)
  (final_layer_norm): LayerNorm((2048,), eps=1e-05, elementwise_affine=True)
) total_norm 4728.95751953125
2023-09-14 11:29:46 | INFO | fairseq.trainer | layer TransformerDecoderLayerBase(
  (dropout_module): FairseqDropout()
  (self_attn): MultiheadAttention(
    (dropout_module): FairseqDropout()
    (k_proj): Linear(in_features=2048, out_features=2048, bias=True)
    (v_proj): Linear(in_features=2048, out_features=2048, bias=True)
    (q_proj): Linear(in_features=2048, out_features=2048, bias=True)
    (out_proj): Linear(in_features=2048, out_features=2048, bias=True)
  )
  (activation_dropout_module): FairseqDropout()
  (self_attn_layer_norm): LayerNorm((2048,), eps=1e-05, elementwise_affine=True)
  (fc1): Linear(in_features=2048, out_features=8192, bias=True)
  (fc2): Linear(in_features=8192, out_features=2048, bias=True)
  (final_layer_norm): LayerNorm((2048,), eps=1e-05, elementwise_affine=True)
) total_norm 2915.23388671875
2023-09-14 11:29:46 | INFO | fairseq.trainer | layer TransformerDecoderLayerBase(
  (dropout_module): FairseqDropout()
  (self_attn): MultiheadAttention(
    (dropout_module): FairseqDropout()
    (k_proj): Linear(in_features=2048, out_features=2048, bias=True)
    (v_proj): Linear(in_features=2048, out_features=2048, bias=True)
    (q_proj): Linear(in_features=2048, out_features=2048, bias=True)
    (out_proj): Linear(in_features=2048, out_features=2048, bias=True)
  )
  (activation_dropout_module): FairseqDropout()
  (self_attn_layer_norm): LayerNorm((2048,), eps=1e-05, elementwise_affine=True)
  (fc1): Linear(in_features=2048, out_features=8192, bias=True)
  (fc2): Linear(in_features=8192, out_features=2048, bias=True)
  (final_layer_norm): LayerNorm((2048,), eps=1e-05, elementwise_affine=True)
) total_norm 2337.146484375
2023-09-14 11:29:46 | INFO | fairseq.trainer | layer TransformerDecoderLayerBase(
  (dropout_module): FairseqDropout()
  (self_attn): MultiheadAttention(
    (dropout_module): FairseqDropout()
    (k_proj): Linear(in_features=2048, out_features=2048, bias=True)
    (v_proj): Linear(in_features=2048, out_features=2048, bias=True)
    (q_proj): Linear(in_features=2048, out_features=2048, bias=True)
    (out_proj): Linear(in_features=2048, out_features=2048, bias=True)
  )
  (activation_dropout_module): FairseqDropout()
  (self_attn_layer_norm): LayerNorm((2048,), eps=1e-05, elementwise_affine=True)
  (fc1): Linear(in_features=2048, out_features=8192, bias=True)
  (fc2): Linear(in_features=8192, out_features=2048, bias=True)
  (final_layer_norm): LayerNorm((2048,), eps=1e-05, elementwise_affine=True)
) total_norm 1791.6734619140625
2023-09-14 11:29:46 | INFO | fairseq.trainer | layer TransformerDecoderLayerBase(
  (dropout_module): FairseqDropout()
  (self_attn): MultiheadAttention(
    (dropout_module): FairseqDropout()
    (k_proj): Linear(in_features=2048, out_features=2048, bias=True)
    (v_proj): Linear(in_features=2048, out_features=2048, bias=True)
    (q_proj): Linear(in_features=2048, out_features=2048, bias=True)
    (out_proj): Linear(in_features=2048, out_features=2048, bias=True)
  )
  (activation_dropout_module): FairseqDropout()
  (self_attn_layer_norm): LayerNorm((2048,), eps=1e-05, elementwise_affine=True)
  (fc1): Linear(in_features=2048, out_features=8192, bias=True)
  (fc2): Linear(in_features=8192, out_features=2048, bias=True)
  (final_layer_norm): LayerNorm((2048,), eps=1e-05, elementwise_affine=True)
) total_norm 1198.77197265625
2023-09-14 11:29:46 | INFO | fairseq.trainer | layer TransformerDecoderLayerBase(
  (dropout_module): FairseqDropout()
  (self_attn): MultiheadAttention(
    (dropout_module): FairseqDropout()
    (k_proj): Linear(in_features=2048, out_features=2048, bias=True)
    (v_proj): Linear(in_features=2048, out_features=2048, bias=True)
    (q_proj): Linear(in_features=2048, out_features=2048, bias=True)
    (out_proj): Linear(in_features=2048, out_features=2048, bias=True)
  )
  (activation_dropout_module): FairseqDropout()
  (self_attn_layer_norm): LayerNorm((2048,), eps=1e-05, elementwise_affine=True)
  (fc1): Linear(in_features=2048, out_features=8192, bias=True)
  (fc2): Linear(in_features=8192, out_features=2048, bias=True)
  (final_layer_norm): LayerNorm((2048,), eps=1e-05, elementwise_affine=True)
) total_norm 901.4109497070312
2023-09-14 11:29:46 | INFO | fairseq.trainer | layer TransformerDecoderLayerBase(
  (dropout_module): FairseqDropout()
  (self_attn): MultiheadAttention(
    (dropout_module): FairseqDropout()
    (k_proj): Linear(in_features=2048, out_features=2048, bias=True)
    (v_proj): Linear(in_features=2048, out_features=2048, bias=True)
    (q_proj): Linear(in_features=2048, out_features=2048, bias=True)
    (out_proj): Linear(in_features=2048, out_features=2048, bias=True)
  )
  (activation_dropout_module): FairseqDropout()
  (self_attn_layer_norm): LayerNorm((2048,), eps=1e-05, elementwise_affine=True)
  (fc1): Linear(in_features=2048, out_features=8192, bias=True)
  (fc2): Linear(in_features=8192, out_features=2048, bias=True)
  (final_layer_norm): LayerNorm((2048,), eps=1e-05, elementwise_affine=True)
) total_norm 644.7183227539062
2023-09-14 11:29:46 | INFO | fairseq.trainer | layer TransformerDecoderLayerBase(
  (dropout_module): FairseqDropout()
  (self_attn): MultiheadAttention(
    (dropout_module): FairseqDropout()
    (k_proj): Linear(in_features=2048, out_features=2048, bias=True)
    (v_proj): Linear(in_features=2048, out_features=2048, bias=True)
    (q_proj): Linear(in_features=2048, out_features=2048, bias=True)
    (out_proj): Linear(in_features=2048, out_features=2048, bias=True)
  )
  (activation_dropout_module): FairseqDropout()
  (self_attn_layer_norm): LayerNorm((2048,), eps=1e-05, elementwise_affine=True)
  (fc1): Linear(in_features=2048, out_features=8192, bias=True)
  (fc2): Linear(in_features=8192, out_features=2048, bias=True)
  (final_layer_norm): LayerNorm((2048,), eps=1e-05, elementwise_affine=True)
) total_norm 554.3994140625
2023-09-14 11:29:46 | INFO | fairseq.trainer | layer TransformerDecoderLayerBase(
  (dropout_module): FairseqDropout()
  (self_attn): MultiheadAttention(
    (dropout_module): FairseqDropout()
    (k_proj): Linear(in_features=2048, out_features=2048, bias=True)
    (v_proj): Linear(in_features=2048, out_features=2048, bias=True)
    (q_proj): Linear(in_features=2048, out_features=2048, bias=True)
    (out_proj): Linear(in_features=2048, out_features=2048, bias=True)
  )
  (activation_dropout_module): FairseqDropout()
  (self_attn_layer_norm): LayerNorm((2048,), eps=1e-05, elementwise_affine=True)
  (fc1): Linear(in_features=2048, out_features=8192, bias=True)
  (fc2): Linear(in_features=8192, out_features=2048, bias=True)
  (final_layer_norm): LayerNorm((2048,), eps=1e-05, elementwise_affine=True)
) total_norm 534.5135498046875
2023-09-14 11:29:46 | INFO | fairseq.trainer | layer TransformerDecoderLayerBase(
  (dropout_module): FairseqDropout()
  (self_attn): MultiheadAttention(
    (dropout_module): FairseqDropout()
    (k_proj): Linear(in_features=2048, out_features=2048, bias=True)
    (v_proj): Linear(in_features=2048, out_features=2048, bias=True)
    (q_proj): Linear(in_features=2048, out_features=2048, bias=True)
    (out_proj): Linear(in_features=2048, out_features=2048, bias=True)
  )
  (activation_dropout_module): FairseqDropout()
  (self_attn_layer_norm): LayerNorm((2048,), eps=1e-05, elementwise_affine=True)
  (fc1): Linear(in_features=2048, out_features=8192, bias=True)
  (fc2): Linear(in_features=8192, out_features=2048, bias=True)
  (final_layer_norm): LayerNorm((2048,), eps=1e-05, elementwise_affine=True)
) total_norm 466.8833312988281
2023-09-14 11:29:46 | INFO | fairseq.trainer | layer TransformerDecoderLayerBase(
  (dropout_module): FairseqDropout()
  (self_attn): MultiheadAttention(
    (dropout_module): FairseqDropout()
    (k_proj): Linear(in_features=2048, out_features=2048, bias=True)
    (v_proj): Linear(in_features=2048, out_features=2048, bias=True)
    (q_proj): Linear(in_features=2048, out_features=2048, bias=True)
    (out_proj): Linear(in_features=2048, out_features=2048, bias=True)
  )
  (activation_dropout_module): FairseqDropout()
  (self_attn_layer_norm): LayerNorm((2048,), eps=1e-05, elementwise_affine=True)
  (fc1): Linear(in_features=2048, out_features=8192, bias=True)
  (fc2): Linear(in_features=8192, out_features=2048, bias=True)
  (final_layer_norm): LayerNorm((2048,), eps=1e-05, elementwise_affine=True)
) total_norm 467.4366455078125
2023-09-14 11:29:46 | INFO | fairseq.trainer | layer TransformerDecoderLayerBase(
  (dropout_module): FairseqDropout()
  (self_attn): MultiheadAttention(
    (dropout_module): FairseqDropout()
    (k_proj): Linear(in_features=2048, out_features=2048, bias=True)
    (v_proj): Linear(in_features=2048, out_features=2048, bias=True)
    (q_proj): Linear(in_features=2048, out_features=2048, bias=True)
    (out_proj): Linear(in_features=2048, out_features=2048, bias=True)
  )
  (activation_dropout_module): FairseqDropout()
  (self_attn_layer_norm): LayerNorm((2048,), eps=1e-05, elementwise_affine=True)
  (fc1): Linear(in_features=2048, out_features=8192, bias=True)
  (fc2): Linear(in_features=8192, out_features=2048, bias=True)
  (final_layer_norm): LayerNorm((2048,), eps=1e-05, elementwise_affine=True)
) total_norm 383.4473571777344
2023-09-14 11:29:46 | INFO | fairseq.trainer | layer TransformerDecoderLayerBase(
  (dropout_module): FairseqDropout()
  (self_attn): MultiheadAttention(
    (dropout_module): FairseqDropout()
    (k_proj): Linear(in_features=2048, out_features=2048, bias=True)
    (v_proj): Linear(in_features=2048, out_features=2048, bias=True)
    (q_proj): Linear(in_features=2048, out_features=2048, bias=True)
    (out_proj): Linear(in_features=2048, out_features=2048, bias=True)
  )
  (activation_dropout_module): FairseqDropout()
  (self_attn_layer_norm): LayerNorm((2048,), eps=1e-05, elementwise_affine=True)
  (fc1): Linear(in_features=2048, out_features=8192, bias=True)
  (fc2): Linear(in_features=8192, out_features=2048, bias=True)
  (final_layer_norm): LayerNorm((2048,), eps=1e-05, elementwise_affine=True)
) total_norm 350.0611572265625
2023-09-14 11:29:46 | INFO | fairseq.trainer | layer TransformerDecoderLayerBase(
  (dropout_module): FairseqDropout()
  (self_attn): MultiheadAttention(
    (dropout_module): FairseqDropout()
    (k_proj): Linear(in_features=2048, out_features=2048, bias=True)
    (v_proj): Linear(in_features=2048, out_features=2048, bias=True)
    (q_proj): Linear(in_features=2048, out_features=2048, bias=True)
    (out_proj): Linear(in_features=2048, out_features=2048, bias=True)
  )
  (activation_dropout_module): FairseqDropout()
  (self_attn_layer_norm): LayerNorm((2048,), eps=1e-05, elementwise_affine=True)
  (fc1): Linear(in_features=2048, out_features=8192, bias=True)
  (fc2): Linear(in_features=8192, out_features=2048, bias=True)
  (final_layer_norm): LayerNorm((2048,), eps=1e-05, elementwise_affine=True)
) total_norm 353.6986389160156
2023-09-14 11:29:46 | INFO | fairseq.trainer | layer TransformerDecoderLayerBase(
  (dropout_module): FairseqDropout()
  (self_attn): MultiheadAttention(
    (dropout_module): FairseqDropout()
    (k_proj): Linear(in_features=2048, out_features=2048, bias=True)
    (v_proj): Linear(in_features=2048, out_features=2048, bias=True)
    (q_proj): Linear(in_features=2048, out_features=2048, bias=True)
    (out_proj): Linear(in_features=2048, out_features=2048, bias=True)
  )
  (activation_dropout_module): FairseqDropout()
  (self_attn_layer_norm): LayerNorm((2048,), eps=1e-05, elementwise_affine=True)
  (fc1): Linear(in_features=2048, out_features=8192, bias=True)
  (fc2): Linear(in_features=8192, out_features=2048, bias=True)
  (final_layer_norm): LayerNorm((2048,), eps=1e-05, elementwise_affine=True)
) total_norm 378.98779296875
2023-09-14 11:29:46 | INFO | fairseq.trainer | layer TransformerDecoderLayerBase(
  (dropout_module): FairseqDropout()
  (self_attn): MultiheadAttention(
    (dropout_module): FairseqDropout()
    (k_proj): Linear(in_features=2048, out_features=2048, bias=True)
    (v_proj): Linear(in_features=2048, out_features=2048, bias=True)
    (q_proj): Linear(in_features=2048, out_features=2048, bias=True)
    (out_proj): Linear(in_features=2048, out_features=2048, bias=True)
  )
  (activation_dropout_module): FairseqDropout()
  (self_attn_layer_norm): LayerNorm((2048,), eps=1e-05, elementwise_affine=True)
  (fc1): Linear(in_features=2048, out_features=8192, bias=True)
  (fc2): Linear(in_features=8192, out_features=2048, bias=True)
  (final_layer_norm): LayerNorm((2048,), eps=1e-05, elementwise_affine=True)
) total_norm 378.29315185546875
2023-09-14 11:29:46 | INFO | fairseq.trainer | layer TransformerDecoderLayerBase(
  (dropout_module): FairseqDropout()
  (self_attn): MultiheadAttention(
    (dropout_module): FairseqDropout()
    (k_proj): Linear(in_features=2048, out_features=2048, bias=True)
    (v_proj): Linear(in_features=2048, out_features=2048, bias=True)
    (q_proj): Linear(in_features=2048, out_features=2048, bias=True)
    (out_proj): Linear(in_features=2048, out_features=2048, bias=True)
  )
  (activation_dropout_module): FairseqDropout()
  (self_attn_layer_norm): LayerNorm((2048,), eps=1e-05, elementwise_affine=True)
  (fc1): Linear(in_features=2048, out_features=8192, bias=True)
  (fc2): Linear(in_features=8192, out_features=2048, bias=True)
  (final_layer_norm): LayerNorm((2048,), eps=1e-05, elementwise_affine=True)
) total_norm 381.97027587890625
2023-09-14 11:29:46 | INFO | fairseq.trainer | layer TransformerDecoderLayerBase(
  (dropout_module): FairseqDropout()
  (self_attn): MultiheadAttention(
    (dropout_module): FairseqDropout()
    (k_proj): Linear(in_features=2048, out_features=2048, bias=True)
    (v_proj): Linear(in_features=2048, out_features=2048, bias=True)
    (q_proj): Linear(in_features=2048, out_features=2048, bias=True)
    (out_proj): Linear(in_features=2048, out_features=2048, bias=True)
  )
  (activation_dropout_module): FairseqDropout()
  (self_attn_layer_norm): LayerNorm((2048,), eps=1e-05, elementwise_affine=True)
  (fc1): Linear(in_features=2048, out_features=8192, bias=True)
  (fc2): Linear(in_features=8192, out_features=2048, bias=True)
  (final_layer_norm): LayerNorm((2048,), eps=1e-05, elementwise_affine=True)
) total_norm 305.41119384765625
2023-09-14 11:29:46 | INFO | fairseq.trainer | layer TransformerDecoderLayerBase(
  (dropout_module): FairseqDropout()
  (self_attn): MultiheadAttention(
    (dropout_module): FairseqDropout()
    (k_proj): Linear(in_features=2048, out_features=2048, bias=True)
    (v_proj): Linear(in_features=2048, out_features=2048, bias=True)
    (q_proj): Linear(in_features=2048, out_features=2048, bias=True)
    (out_proj): Linear(in_features=2048, out_features=2048, bias=True)
  )
  (activation_dropout_module): FairseqDropout()
  (self_attn_layer_norm): LayerNorm((2048,), eps=1e-05, elementwise_affine=True)
  (fc1): Linear(in_features=2048, out_features=8192, bias=True)
  (fc2): Linear(in_features=8192, out_features=2048, bias=True)
  (final_layer_norm): LayerNorm((2048,), eps=1e-05, elementwise_affine=True)
) total_norm 241.25286865234375
2023-09-14 11:29:46 | INFO | fairseq.trainer | layer TransformerDecoderLayerBase(
  (dropout_module): FairseqDropout()
  (self_attn): MultiheadAttention(
    (dropout_module): FairseqDropout()
    (k_proj): Linear(in_features=2048, out_features=2048, bias=True)
    (v_proj): Linear(in_features=2048, out_features=2048, bias=True)
    (q_proj): Linear(in_features=2048, out_features=2048, bias=True)
    (out_proj): Linear(in_features=2048, out_features=2048, bias=True)
  )
  (activation_dropout_module): FairseqDropout()
  (self_attn_layer_norm): LayerNorm((2048,), eps=1e-05, elementwise_affine=True)
  (fc1): Linear(in_features=2048, out_features=8192, bias=True)
  (fc2): Linear(in_features=8192, out_features=2048, bias=True)
  (final_layer_norm): LayerNorm((2048,), eps=1e-05, elementwise_affine=True)
) total_norm 206.52239990234375
2023-09-14 11:29:46 | INFO | fairseq.trainer | layer TransformerDecoderLayerBase(
  (dropout_module): FairseqDropout()
  (self_attn): MultiheadAttention(
    (dropout_module): FairseqDropout()
    (k_proj): Linear(in_features=2048, out_features=2048, bias=True)
    (v_proj): Linear(in_features=2048, out_features=2048, bias=True)
    (q_proj): Linear(in_features=2048, out_features=2048, bias=True)
    (out_proj): Linear(in_features=2048, out_features=2048, bias=True)
  )
  (activation_dropout_module): FairseqDropout()
  (self_attn_layer_norm): LayerNorm((2048,), eps=1e-05, elementwise_affine=True)
  (fc1): Linear(in_features=2048, out_features=8192, bias=True)
  (fc2): Linear(in_features=8192, out_features=2048, bias=True)
  (final_layer_norm): LayerNorm((2048,), eps=1e-05, elementwise_affine=True)
) total_norm 200.51258850097656
2023-09-14 11:29:46 | INFO | fairseq.trainer | layer TransformerDecoderLayerBase(
  (dropout_module): FairseqDropout()
  (self_attn): MultiheadAttention(
    (dropout_module): FairseqDropout()
    (k_proj): Linear(in_features=2048, out_features=2048, bias=True)
    (v_proj): Linear(in_features=2048, out_features=2048, bias=True)
    (q_proj): Linear(in_features=2048, out_features=2048, bias=True)
    (out_proj): Linear(in_features=2048, out_features=2048, bias=True)
  )
  (activation_dropout_module): FairseqDropout()
  (self_attn_layer_norm): LayerNorm((2048,), eps=1e-05, elementwise_affine=True)
  (fc1): Linear(in_features=2048, out_features=8192, bias=True)
  (fc2): Linear(in_features=8192, out_features=2048, bias=True)
  (final_layer_norm): LayerNorm((2048,), eps=1e-05, elementwise_affine=True)
) total_norm 181.83059692382812
2023-09-14 11:29:46 | INFO | fairseq.trainer | layer TransformerDecoderLayerBase(
  (dropout_module): FairseqDropout()
  (self_attn): MultiheadAttention(
    (dropout_module): FairseqDropout()
    (k_proj): Linear(in_features=2048, out_features=2048, bias=True)
    (v_proj): Linear(in_features=2048, out_features=2048, bias=True)
    (q_proj): Linear(in_features=2048, out_features=2048, bias=True)
    (out_proj): Linear(in_features=2048, out_features=2048, bias=True)
  )
  (activation_dropout_module): FairseqDropout()
  (self_attn_layer_norm): LayerNorm((2048,), eps=1e-05, elementwise_affine=True)
  (fc1): Linear(in_features=2048, out_features=8192, bias=True)
  (fc2): Linear(in_features=8192, out_features=2048, bias=True)
  (final_layer_norm): LayerNorm((2048,), eps=1e-05, elementwise_affine=True)
) total_norm 404.8536071777344
2023-09-14 11:29:46 | INFO | train_inner | epoch 001:      2 / 32 loss=429.211, sample_size=20, ntokens=21, wps=16.4, ups=0.78, wpb=21, bsz=1, num_updates=2, lr=0.003, gnorm=36.721, clip=100, loss_scale=4, train_wall=1, gb_free=17, wall=9
2023-09-14 11:29:48 | INFO | fairseq.trainer | layer TransformerDecoderLayerBase(
  (dropout_module): FairseqDropout()
  (self_attn): MultiheadAttention(
    (dropout_module): FairseqDropout()
    (k_proj): Linear(in_features=2048, out_features=2048, bias=True)
    (v_proj): Linear(in_features=2048, out_features=2048, bias=True)
    (q_proj): Linear(in_features=2048, out_features=2048, bias=True)
    (out_proj): Linear(in_features=2048, out_features=2048, bias=True)
  )
  (activation_dropout_module): FairseqDropout()
  (self_attn_layer_norm): LayerNorm((2048,), eps=1e-05, elementwise_affine=True)
  (fc1): Linear(in_features=2048, out_features=8192, bias=True)
  (fc2): Linear(in_features=8192, out_features=2048, bias=True)
  (final_layer_norm): LayerNorm((2048,), eps=1e-05, elementwise_affine=True)
) total_norm 10907.6904296875
2023-09-14 11:29:48 | INFO | fairseq.trainer | layer TransformerDecoderLayerBase(
  (dropout_module): FairseqDropout()
  (self_attn): MultiheadAttention(
    (dropout_module): FairseqDropout()
    (k_proj): Linear(in_features=2048, out_features=2048, bias=True)
    (v_proj): Linear(in_features=2048, out_features=2048, bias=True)
    (q_proj): Linear(in_features=2048, out_features=2048, bias=True)
    (out_proj): Linear(in_features=2048, out_features=2048, bias=True)
  )
  (activation_dropout_module): FairseqDropout()
  (self_attn_layer_norm): LayerNorm((2048,), eps=1e-05, elementwise_affine=True)
  (fc1): Linear(in_features=2048, out_features=8192, bias=True)
  (fc2): Linear(in_features=8192, out_features=2048, bias=True)
  (final_layer_norm): LayerNorm((2048,), eps=1e-05, elementwise_affine=True)
) total_norm 7880.06591796875
2023-09-14 11:29:48 | INFO | fairseq.trainer | layer TransformerDecoderLayerBase(
  (dropout_module): FairseqDropout()
  (self_attn): MultiheadAttention(
    (dropout_module): FairseqDropout()
    (k_proj): Linear(in_features=2048, out_features=2048, bias=True)
    (v_proj): Linear(in_features=2048, out_features=2048, bias=True)
    (q_proj): Linear(in_features=2048, out_features=2048, bias=True)
    (out_proj): Linear(in_features=2048, out_features=2048, bias=True)
  )
  (activation_dropout_module): FairseqDropout()
  (self_attn_layer_norm): LayerNorm((2048,), eps=1e-05, elementwise_affine=True)
  (fc1): Linear(in_features=2048, out_features=8192, bias=True)
  (fc2): Linear(in_features=8192, out_features=2048, bias=True)
  (final_layer_norm): LayerNorm((2048,), eps=1e-05, elementwise_affine=True)
) total_norm 4837.1904296875
2023-09-14 11:29:48 | INFO | fairseq.trainer | layer TransformerDecoderLayerBase(
  (dropout_module): FairseqDropout()
  (self_attn): MultiheadAttention(
    (dropout_module): FairseqDropout()
    (k_proj): Linear(in_features=2048, out_features=2048, bias=True)
    (v_proj): Linear(in_features=2048, out_features=2048, bias=True)
    (q_proj): Linear(in_features=2048, out_features=2048, bias=True)
    (out_proj): Linear(in_features=2048, out_features=2048, bias=True)
  )
  (activation_dropout_module): FairseqDropout()
  (self_attn_layer_norm): LayerNorm((2048,), eps=1e-05, elementwise_affine=True)
  (fc1): Linear(in_features=2048, out_features=8192, bias=True)
  (fc2): Linear(in_features=8192, out_features=2048, bias=True)
  (final_layer_norm): LayerNorm((2048,), eps=1e-05, elementwise_affine=True)
) total_norm 3732.097900390625
2023-09-14 11:29:48 | INFO | fairseq.trainer | layer TransformerDecoderLayerBase(
  (dropout_module): FairseqDropout()
  (self_attn): MultiheadAttention(
    (dropout_module): FairseqDropout()
    (k_proj): Linear(in_features=2048, out_features=2048, bias=True)
    (v_proj): Linear(in_features=2048, out_features=2048, bias=True)
    (q_proj): Linear(in_features=2048, out_features=2048, bias=True)
    (out_proj): Linear(in_features=2048, out_features=2048, bias=True)
  )
  (activation_dropout_module): FairseqDropout()
  (self_attn_layer_norm): LayerNorm((2048,), eps=1e-05, elementwise_affine=True)
  (fc1): Linear(in_features=2048, out_features=8192, bias=True)
  (fc2): Linear(in_features=8192, out_features=2048, bias=True)
  (final_layer_norm): LayerNorm((2048,), eps=1e-05, elementwise_affine=True)
) total_norm 2816.062744140625
2023-09-14 11:29:48 | INFO | fairseq.trainer | layer TransformerDecoderLayerBase(
  (dropout_module): FairseqDropout()
  (self_attn): MultiheadAttention(
    (dropout_module): FairseqDropout()
    (k_proj): Linear(in_features=2048, out_features=2048, bias=True)
    (v_proj): Linear(in_features=2048, out_features=2048, bias=True)
    (q_proj): Linear(in_features=2048, out_features=2048, bias=True)
    (out_proj): Linear(in_features=2048, out_features=2048, bias=True)
  )
  (activation_dropout_module): FairseqDropout()
  (self_attn_layer_norm): LayerNorm((2048,), eps=1e-05, elementwise_affine=True)
  (fc1): Linear(in_features=2048, out_features=8192, bias=True)
  (fc2): Linear(in_features=8192, out_features=2048, bias=True)
  (final_layer_norm): LayerNorm((2048,), eps=1e-05, elementwise_affine=True)
) total_norm 1956.211181640625
2023-09-14 11:29:48 | INFO | fairseq.trainer | layer TransformerDecoderLayerBase(
  (dropout_module): FairseqDropout()
  (self_attn): MultiheadAttention(
    (dropout_module): FairseqDropout()
    (k_proj): Linear(in_features=2048, out_features=2048, bias=True)
    (v_proj): Linear(in_features=2048, out_features=2048, bias=True)
    (q_proj): Linear(in_features=2048, out_features=2048, bias=True)
    (out_proj): Linear(in_features=2048, out_features=2048, bias=True)
  )
  (activation_dropout_module): FairseqDropout()
  (self_attn_layer_norm): LayerNorm((2048,), eps=1e-05, elementwise_affine=True)
  (fc1): Linear(in_features=2048, out_features=8192, bias=True)
  (fc2): Linear(in_features=8192, out_features=2048, bias=True)
  (final_layer_norm): LayerNorm((2048,), eps=1e-05, elementwise_affine=True)
) total_norm 1294.7994384765625
2023-09-14 11:29:48 | INFO | fairseq.trainer | layer TransformerDecoderLayerBase(
  (dropout_module): FairseqDropout()
  (self_attn): MultiheadAttention(
    (dropout_module): FairseqDropout()
    (k_proj): Linear(in_features=2048, out_features=2048, bias=True)
    (v_proj): Linear(in_features=2048, out_features=2048, bias=True)
    (q_proj): Linear(in_features=2048, out_features=2048, bias=True)
    (out_proj): Linear(in_features=2048, out_features=2048, bias=True)
  )
  (activation_dropout_module): FairseqDropout()
  (self_attn_layer_norm): LayerNorm((2048,), eps=1e-05, elementwise_affine=True)
  (fc1): Linear(in_features=2048, out_features=8192, bias=True)
  (fc2): Linear(in_features=8192, out_features=2048, bias=True)
  (final_layer_norm): LayerNorm((2048,), eps=1e-05, elementwise_affine=True)
) total_norm 931.0894165039062
2023-09-14 11:29:48 | INFO | fairseq.trainer | layer TransformerDecoderLayerBase(
  (dropout_module): FairseqDropout()
  (self_attn): MultiheadAttention(
    (dropout_module): FairseqDropout()
    (k_proj): Linear(in_features=2048, out_features=2048, bias=True)
    (v_proj): Linear(in_features=2048, out_features=2048, bias=True)
    (q_proj): Linear(in_features=2048, out_features=2048, bias=True)
    (out_proj): Linear(in_features=2048, out_features=2048, bias=True)
  )
  (activation_dropout_module): FairseqDropout()
  (self_attn_layer_norm): LayerNorm((2048,), eps=1e-05, elementwise_affine=True)
  (fc1): Linear(in_features=2048, out_features=8192, bias=True)
  (fc2): Linear(in_features=8192, out_features=2048, bias=True)
  (final_layer_norm): LayerNorm((2048,), eps=1e-05, elementwise_affine=True)
) total_norm 863.0650024414062
2023-09-14 11:29:48 | INFO | fairseq.trainer | layer TransformerDecoderLayerBase(
  (dropout_module): FairseqDropout()
  (self_attn): MultiheadAttention(
    (dropout_module): FairseqDropout()
    (k_proj): Linear(in_features=2048, out_features=2048, bias=True)
    (v_proj): Linear(in_features=2048, out_features=2048, bias=True)
    (q_proj): Linear(in_features=2048, out_features=2048, bias=True)
    (out_proj): Linear(in_features=2048, out_features=2048, bias=True)
  )
  (activation_dropout_module): FairseqDropout()
  (self_attn_layer_norm): LayerNorm((2048,), eps=1e-05, elementwise_affine=True)
  (fc1): Linear(in_features=2048, out_features=8192, bias=True)
  (fc2): Linear(in_features=8192, out_features=2048, bias=True)
  (final_layer_norm): LayerNorm((2048,), eps=1e-05, elementwise_affine=True)
) total_norm 741.4359130859375
2023-09-14 11:29:48 | INFO | fairseq.trainer | layer TransformerDecoderLayerBase(
  (dropout_module): FairseqDropout()
  (self_attn): MultiheadAttention(
    (dropout_module): FairseqDropout()
    (k_proj): Linear(in_features=2048, out_features=2048, bias=True)
    (v_proj): Linear(in_features=2048, out_features=2048, bias=True)
    (q_proj): Linear(in_features=2048, out_features=2048, bias=True)
    (out_proj): Linear(in_features=2048, out_features=2048, bias=True)
  )
  (activation_dropout_module): FairseqDropout()
  (self_attn_layer_norm): LayerNorm((2048,), eps=1e-05, elementwise_affine=True)
  (fc1): Linear(in_features=2048, out_features=8192, bias=True)
  (fc2): Linear(in_features=8192, out_features=2048, bias=True)
  (final_layer_norm): LayerNorm((2048,), eps=1e-05, elementwise_affine=True)
) total_norm 642.1650390625
2023-09-14 11:29:48 | INFO | fairseq.trainer | layer TransformerDecoderLayerBase(
  (dropout_module): FairseqDropout()
  (self_attn): MultiheadAttention(
    (dropout_module): FairseqDropout()
    (k_proj): Linear(in_features=2048, out_features=2048, bias=True)
    (v_proj): Linear(in_features=2048, out_features=2048, bias=True)
    (q_proj): Linear(in_features=2048, out_features=2048, bias=True)
    (out_proj): Linear(in_features=2048, out_features=2048, bias=True)
  )
  (activation_dropout_module): FairseqDropout()
  (self_attn_layer_norm): LayerNorm((2048,), eps=1e-05, elementwise_affine=True)
  (fc1): Linear(in_features=2048, out_features=8192, bias=True)
  (fc2): Linear(in_features=8192, out_features=2048, bias=True)
  (final_layer_norm): LayerNorm((2048,), eps=1e-05, elementwise_affine=True)
) total_norm 604.4815673828125
2023-09-14 11:29:48 | INFO | fairseq.trainer | layer TransformerDecoderLayerBase(
  (dropout_module): FairseqDropout()
  (self_attn): MultiheadAttention(
    (dropout_module): FairseqDropout()
    (k_proj): Linear(in_features=2048, out_features=2048, bias=True)
    (v_proj): Linear(in_features=2048, out_features=2048, bias=True)
    (q_proj): Linear(in_features=2048, out_features=2048, bias=True)
    (out_proj): Linear(in_features=2048, out_features=2048, bias=True)
  )
  (activation_dropout_module): FairseqDropout()
  (self_attn_layer_norm): LayerNorm((2048,), eps=1e-05, elementwise_affine=True)
  (fc1): Linear(in_features=2048, out_features=8192, bias=True)
  (fc2): Linear(in_features=8192, out_features=2048, bias=True)
  (final_layer_norm): LayerNorm((2048,), eps=1e-05, elementwise_affine=True)
) total_norm 548.03955078125
2023-09-14 11:29:48 | INFO | fairseq.trainer | layer TransformerDecoderLayerBase(
  (dropout_module): FairseqDropout()
  (self_attn): MultiheadAttention(
    (dropout_module): FairseqDropout()
    (k_proj): Linear(in_features=2048, out_features=2048, bias=True)
    (v_proj): Linear(in_features=2048, out_features=2048, bias=True)
    (q_proj): Linear(in_features=2048, out_features=2048, bias=True)
    (out_proj): Linear(in_features=2048, out_features=2048, bias=True)
  )
  (activation_dropout_module): FairseqDropout()
  (self_attn_layer_norm): LayerNorm((2048,), eps=1e-05, elementwise_affine=True)
  (fc1): Linear(in_features=2048, out_features=8192, bias=True)
  (fc2): Linear(in_features=8192, out_features=2048, bias=True)
  (final_layer_norm): LayerNorm((2048,), eps=1e-05, elementwise_affine=True)
) total_norm 446.2078857421875
2023-09-14 11:29:48 | INFO | fairseq.trainer | layer TransformerDecoderLayerBase(
  (dropout_module): FairseqDropout()
  (self_attn): MultiheadAttention(
    (dropout_module): FairseqDropout()
    (k_proj): Linear(in_features=2048, out_features=2048, bias=True)
    (v_proj): Linear(in_features=2048, out_features=2048, bias=True)
    (q_proj): Linear(in_features=2048, out_features=2048, bias=True)
    (out_proj): Linear(in_features=2048, out_features=2048, bias=True)
  )
  (activation_dropout_module): FairseqDropout()
  (self_attn_layer_norm): LayerNorm((2048,), eps=1e-05, elementwise_affine=True)
  (fc1): Linear(in_features=2048, out_features=8192, bias=True)
  (fc2): Linear(in_features=8192, out_features=2048, bias=True)
  (final_layer_norm): LayerNorm((2048,), eps=1e-05, elementwise_affine=True)
) total_norm 439.2360534667969
2023-09-14 11:29:48 | INFO | fairseq.trainer | layer TransformerDecoderLayerBase(
  (dropout_module): FairseqDropout()
  (self_attn): MultiheadAttention(
    (dropout_module): FairseqDropout()
    (k_proj): Linear(in_features=2048, out_features=2048, bias=True)
    (v_proj): Linear(in_features=2048, out_features=2048, bias=True)
    (q_proj): Linear(in_features=2048, out_features=2048, bias=True)
    (out_proj): Linear(in_features=2048, out_features=2048, bias=True)
  )
  (activation_dropout_module): FairseqDropout()
  (self_attn_layer_norm): LayerNorm((2048,), eps=1e-05, elementwise_affine=True)
  (fc1): Linear(in_features=2048, out_features=8192, bias=True)
  (fc2): Linear(in_features=8192, out_features=2048, bias=True)
  (final_layer_norm): LayerNorm((2048,), eps=1e-05, elementwise_affine=True)
) total_norm 452.31036376953125
2023-09-14 11:29:48 | INFO | fairseq.trainer | layer TransformerDecoderLayerBase(
  (dropout_module): FairseqDropout()
  (self_attn): MultiheadAttention(
    (dropout_module): FairseqDropout()
    (k_proj): Linear(in_features=2048, out_features=2048, bias=True)
    (v_proj): Linear(in_features=2048, out_features=2048, bias=True)
    (q_proj): Linear(in_features=2048, out_features=2048, bias=True)
    (out_proj): Linear(in_features=2048, out_features=2048, bias=True)
  )
  (activation_dropout_module): FairseqDropout()
  (self_attn_layer_norm): LayerNorm((2048,), eps=1e-05, elementwise_affine=True)
  (fc1): Linear(in_features=2048, out_features=8192, bias=True)
  (fc2): Linear(in_features=8192, out_features=2048, bias=True)
  (final_layer_norm): LayerNorm((2048,), eps=1e-05, elementwise_affine=True)
) total_norm 425.96600341796875
2023-09-14 11:29:48 | INFO | fairseq.trainer | layer TransformerDecoderLayerBase(
  (dropout_module): FairseqDropout()
  (self_attn): MultiheadAttention(
    (dropout_module): FairseqDropout()
    (k_proj): Linear(in_features=2048, out_features=2048, bias=True)
    (v_proj): Linear(in_features=2048, out_features=2048, bias=True)
    (q_proj): Linear(in_features=2048, out_features=2048, bias=True)
    (out_proj): Linear(in_features=2048, out_features=2048, bias=True)
  )
  (activation_dropout_module): FairseqDropout()
  (self_attn_layer_norm): LayerNorm((2048,), eps=1e-05, elementwise_affine=True)
  (fc1): Linear(in_features=2048, out_features=8192, bias=True)
  (fc2): Linear(in_features=8192, out_features=2048, bias=True)
  (final_layer_norm): LayerNorm((2048,), eps=1e-05, elementwise_affine=True)
) total_norm 435.702392578125
2023-09-14 11:29:48 | INFO | fairseq.trainer | layer TransformerDecoderLayerBase(
  (dropout_module): FairseqDropout()
  (self_attn): MultiheadAttention(
    (dropout_module): FairseqDropout()
    (k_proj): Linear(in_features=2048, out_features=2048, bias=True)
    (v_proj): Linear(in_features=2048, out_features=2048, bias=True)
    (q_proj): Linear(in_features=2048, out_features=2048, bias=True)
    (out_proj): Linear(in_features=2048, out_features=2048, bias=True)
  )
  (activation_dropout_module): FairseqDropout()
  (self_attn_layer_norm): LayerNorm((2048,), eps=1e-05, elementwise_affine=True)
  (fc1): Linear(in_features=2048, out_features=8192, bias=True)
  (fc2): Linear(in_features=8192, out_features=2048, bias=True)
  (final_layer_norm): LayerNorm((2048,), eps=1e-05, elementwise_affine=True)
) total_norm 350.2903747558594
2023-09-14 11:29:48 | INFO | fairseq.trainer | layer TransformerDecoderLayerBase(
  (dropout_module): FairseqDropout()
  (self_attn): MultiheadAttention(
    (dropout_module): FairseqDropout()
    (k_proj): Linear(in_features=2048, out_features=2048, bias=True)
    (v_proj): Linear(in_features=2048, out_features=2048, bias=True)
    (q_proj): Linear(in_features=2048, out_features=2048, bias=True)
    (out_proj): Linear(in_features=2048, out_features=2048, bias=True)
  )
  (activation_dropout_module): FairseqDropout()
  (self_attn_layer_norm): LayerNorm((2048,), eps=1e-05, elementwise_affine=True)
  (fc1): Linear(in_features=2048, out_features=8192, bias=True)
  (fc2): Linear(in_features=8192, out_features=2048, bias=True)
  (final_layer_norm): LayerNorm((2048,), eps=1e-05, elementwise_affine=True)
) total_norm 272.39093017578125
2023-09-14 11:29:48 | INFO | fairseq.trainer | layer TransformerDecoderLayerBase(
  (dropout_module): FairseqDropout()
  (self_attn): MultiheadAttention(
    (dropout_module): FairseqDropout()
    (k_proj): Linear(in_features=2048, out_features=2048, bias=True)
    (v_proj): Linear(in_features=2048, out_features=2048, bias=True)
    (q_proj): Linear(in_features=2048, out_features=2048, bias=True)
    (out_proj): Linear(in_features=2048, out_features=2048, bias=True)
  )
  (activation_dropout_module): FairseqDropout()
  (self_attn_layer_norm): LayerNorm((2048,), eps=1e-05, elementwise_affine=True)
  (fc1): Linear(in_features=2048, out_features=8192, bias=True)
  (fc2): Linear(in_features=8192, out_features=2048, bias=True)
  (final_layer_norm): LayerNorm((2048,), eps=1e-05, elementwise_affine=True)
) total_norm 240.12814331054688
2023-09-14 11:29:48 | INFO | fairseq.trainer | layer TransformerDecoderLayerBase(
  (dropout_module): FairseqDropout()
  (self_attn): MultiheadAttention(
    (dropout_module): FairseqDropout()
    (k_proj): Linear(in_features=2048, out_features=2048, bias=True)
    (v_proj): Linear(in_features=2048, out_features=2048, bias=True)
    (q_proj): Linear(in_features=2048, out_features=2048, bias=True)
    (out_proj): Linear(in_features=2048, out_features=2048, bias=True)
  )
  (activation_dropout_module): FairseqDropout()
  (self_attn_layer_norm): LayerNorm((2048,), eps=1e-05, elementwise_affine=True)
  (fc1): Linear(in_features=2048, out_features=8192, bias=True)
  (fc2): Linear(in_features=8192, out_features=2048, bias=True)
  (final_layer_norm): LayerNorm((2048,), eps=1e-05, elementwise_affine=True)
) total_norm 222.05218505859375
2023-09-14 11:29:48 | INFO | fairseq.trainer | layer TransformerDecoderLayerBase(
  (dropout_module): FairseqDropout()
  (self_attn): MultiheadAttention(
    (dropout_module): FairseqDropout()
    (k_proj): Linear(in_features=2048, out_features=2048, bias=True)
    (v_proj): Linear(in_features=2048, out_features=2048, bias=True)
    (q_proj): Linear(in_features=2048, out_features=2048, bias=True)
    (out_proj): Linear(in_features=2048, out_features=2048, bias=True)
  )
  (activation_dropout_module): FairseqDropout()
  (self_attn_layer_norm): LayerNorm((2048,), eps=1e-05, elementwise_affine=True)
  (fc1): Linear(in_features=2048, out_features=8192, bias=True)
  (fc2): Linear(in_features=8192, out_features=2048, bias=True)
  (final_layer_norm): LayerNorm((2048,), eps=1e-05, elementwise_affine=True)
) total_norm 216.05807495117188
2023-09-14 11:29:48 | INFO | fairseq.trainer | layer TransformerDecoderLayerBase(
  (dropout_module): FairseqDropout()
  (self_attn): MultiheadAttention(
    (dropout_module): FairseqDropout()
    (k_proj): Linear(in_features=2048, out_features=2048, bias=True)
    (v_proj): Linear(in_features=2048, out_features=2048, bias=True)
    (q_proj): Linear(in_features=2048, out_features=2048, bias=True)
    (out_proj): Linear(in_features=2048, out_features=2048, bias=True)
  )
  (activation_dropout_module): FairseqDropout()
  (self_attn_layer_norm): LayerNorm((2048,), eps=1e-05, elementwise_affine=True)
  (fc1): Linear(in_features=2048, out_features=8192, bias=True)
  (fc2): Linear(in_features=8192, out_features=2048, bias=True)
  (final_layer_norm): LayerNorm((2048,), eps=1e-05, elementwise_affine=True)
) total_norm 440.1761779785156
2023-09-14 11:29:48 | INFO | train_inner | epoch 001:      3 / 32 loss=440.78, sample_size=32, ntokens=33, wps=18, ups=0.54, wpb=33, bsz=1, num_updates=3, lr=0.003, gnorm=36.577, clip=100, loss_scale=4, train_wall=2, gb_free=16.9, wall=11
2023-09-14 11:29:50 | INFO | fairseq.trainer | layer TransformerDecoderLayerBase(
  (dropout_module): FairseqDropout()
  (self_attn): MultiheadAttention(
    (dropout_module): FairseqDropout()
    (k_proj): Linear(in_features=2048, out_features=2048, bias=True)
    (v_proj): Linear(in_features=2048, out_features=2048, bias=True)
    (q_proj): Linear(in_features=2048, out_features=2048, bias=True)
    (out_proj): Linear(in_features=2048, out_features=2048, bias=True)
  )
  (activation_dropout_module): FairseqDropout()
  (self_attn_layer_norm): LayerNorm((2048,), eps=1e-05, elementwise_affine=True)
  (fc1): Linear(in_features=2048, out_features=8192, bias=True)
  (fc2): Linear(in_features=8192, out_features=2048, bias=True)
  (final_layer_norm): LayerNorm((2048,), eps=1e-05, elementwise_affine=True)
) total_norm 15764.2744140625
2023-09-14 11:29:50 | INFO | fairseq.trainer | layer TransformerDecoderLayerBase(
  (dropout_module): FairseqDropout()
  (self_attn): MultiheadAttention(
    (dropout_module): FairseqDropout()
    (k_proj): Linear(in_features=2048, out_features=2048, bias=True)
    (v_proj): Linear(in_features=2048, out_features=2048, bias=True)
    (q_proj): Linear(in_features=2048, out_features=2048, bias=True)
    (out_proj): Linear(in_features=2048, out_features=2048, bias=True)
  )
  (activation_dropout_module): FairseqDropout()
  (self_attn_layer_norm): LayerNorm((2048,), eps=1e-05, elementwise_affine=True)
  (fc1): Linear(in_features=2048, out_features=8192, bias=True)
  (fc2): Linear(in_features=8192, out_features=2048, bias=True)
  (final_layer_norm): LayerNorm((2048,), eps=1e-05, elementwise_affine=True)
) total_norm 11777.4111328125
2023-09-14 11:29:50 | INFO | fairseq.trainer | layer TransformerDecoderLayerBase(
  (dropout_module): FairseqDropout()
  (self_attn): MultiheadAttention(
    (dropout_module): FairseqDropout()
    (k_proj): Linear(in_features=2048, out_features=2048, bias=True)
    (v_proj): Linear(in_features=2048, out_features=2048, bias=True)
    (q_proj): Linear(in_features=2048, out_features=2048, bias=True)
    (out_proj): Linear(in_features=2048, out_features=2048, bias=True)
  )
  (activation_dropout_module): FairseqDropout()
  (self_attn_layer_norm): LayerNorm((2048,), eps=1e-05, elementwise_affine=True)
  (fc1): Linear(in_features=2048, out_features=8192, bias=True)
  (fc2): Linear(in_features=8192, out_features=2048, bias=True)
  (final_layer_norm): LayerNorm((2048,), eps=1e-05, elementwise_affine=True)
) total_norm 7091.3505859375
2023-09-14 11:29:50 | INFO | fairseq.trainer | layer TransformerDecoderLayerBase(
  (dropout_module): FairseqDropout()
  (self_attn): MultiheadAttention(
    (dropout_module): FairseqDropout()
    (k_proj): Linear(in_features=2048, out_features=2048, bias=True)
    (v_proj): Linear(in_features=2048, out_features=2048, bias=True)
    (q_proj): Linear(in_features=2048, out_features=2048, bias=True)
    (out_proj): Linear(in_features=2048, out_features=2048, bias=True)
  )
  (activation_dropout_module): FairseqDropout()
  (self_attn_layer_norm): LayerNorm((2048,), eps=1e-05, elementwise_affine=True)
  (fc1): Linear(in_features=2048, out_features=8192, bias=True)
  (fc2): Linear(in_features=8192, out_features=2048, bias=True)
  (final_layer_norm): LayerNorm((2048,), eps=1e-05, elementwise_affine=True)
) total_norm 5073.00439453125
2023-09-14 11:29:50 | INFO | fairseq.trainer | layer TransformerDecoderLayerBase(
  (dropout_module): FairseqDropout()
  (self_attn): MultiheadAttention(
    (dropout_module): FairseqDropout()
    (k_proj): Linear(in_features=2048, out_features=2048, bias=True)
    (v_proj): Linear(in_features=2048, out_features=2048, bias=True)
    (q_proj): Linear(in_features=2048, out_features=2048, bias=True)
    (out_proj): Linear(in_features=2048, out_features=2048, bias=True)
  )
  (activation_dropout_module): FairseqDropout()
  (self_attn_layer_norm): LayerNorm((2048,), eps=1e-05, elementwise_affine=True)
  (fc1): Linear(in_features=2048, out_features=8192, bias=True)
  (fc2): Linear(in_features=8192, out_features=2048, bias=True)
  (final_layer_norm): LayerNorm((2048,), eps=1e-05, elementwise_affine=True)
) total_norm 3532.13623046875
2023-09-14 11:29:50 | INFO | fairseq.trainer | layer TransformerDecoderLayerBase(
  (dropout_module): FairseqDropout()
  (self_attn): MultiheadAttention(
    (dropout_module): FairseqDropout()
    (k_proj): Linear(in_features=2048, out_features=2048, bias=True)
    (v_proj): Linear(in_features=2048, out_features=2048, bias=True)
    (q_proj): Linear(in_features=2048, out_features=2048, bias=True)
    (out_proj): Linear(in_features=2048, out_features=2048, bias=True)
  )
  (activation_dropout_module): FairseqDropout()
  (self_attn_layer_norm): LayerNorm((2048,), eps=1e-05, elementwise_affine=True)
  (fc1): Linear(in_features=2048, out_features=8192, bias=True)
  (fc2): Linear(in_features=8192, out_features=2048, bias=True)
  (final_layer_norm): LayerNorm((2048,), eps=1e-05, elementwise_affine=True)
) total_norm 2758.70458984375
2023-09-14 11:29:50 | INFO | fairseq.trainer | layer TransformerDecoderLayerBase(
  (dropout_module): FairseqDropout()
  (self_attn): MultiheadAttention(
    (dropout_module): FairseqDropout()
    (k_proj): Linear(in_features=2048, out_features=2048, bias=True)
    (v_proj): Linear(in_features=2048, out_features=2048, bias=True)
    (q_proj): Linear(in_features=2048, out_features=2048, bias=True)
    (out_proj): Linear(in_features=2048, out_features=2048, bias=True)
  )
  (activation_dropout_module): FairseqDropout()
  (self_attn_layer_norm): LayerNorm((2048,), eps=1e-05, elementwise_affine=True)
  (fc1): Linear(in_features=2048, out_features=8192, bias=True)
  (fc2): Linear(in_features=8192, out_features=2048, bias=True)
  (final_layer_norm): LayerNorm((2048,), eps=1e-05, elementwise_affine=True)
) total_norm 1989.5672607421875
2023-09-14 11:29:50 | INFO | fairseq.trainer | layer TransformerDecoderLayerBase(
  (dropout_module): FairseqDropout()
  (self_attn): MultiheadAttention(
    (dropout_module): FairseqDropout()
    (k_proj): Linear(in_features=2048, out_features=2048, bias=True)
    (v_proj): Linear(in_features=2048, out_features=2048, bias=True)
    (q_proj): Linear(in_features=2048, out_features=2048, bias=True)
    (out_proj): Linear(in_features=2048, out_features=2048, bias=True)
  )
  (activation_dropout_module): FairseqDropout()
  (self_attn_layer_norm): LayerNorm((2048,), eps=1e-05, elementwise_affine=True)
  (fc1): Linear(in_features=2048, out_features=8192, bias=True)
  (fc2): Linear(in_features=8192, out_features=2048, bias=True)
  (final_layer_norm): LayerNorm((2048,), eps=1e-05, elementwise_affine=True)
) total_norm 1480.0938720703125
2023-09-14 11:29:50 | INFO | fairseq.trainer | layer TransformerDecoderLayerBase(
  (dropout_module): FairseqDropout()
  (self_attn): MultiheadAttention(
    (dropout_module): FairseqDropout()
    (k_proj): Linear(in_features=2048, out_features=2048, bias=True)
    (v_proj): Linear(in_features=2048, out_features=2048, bias=True)
    (q_proj): Linear(in_features=2048, out_features=2048, bias=True)
    (out_proj): Linear(in_features=2048, out_features=2048, bias=True)
  )
  (activation_dropout_module): FairseqDropout()
  (self_attn_layer_norm): LayerNorm((2048,), eps=1e-05, elementwise_affine=True)
  (fc1): Linear(in_features=2048, out_features=8192, bias=True)
  (fc2): Linear(in_features=8192, out_features=2048, bias=True)
  (final_layer_norm): LayerNorm((2048,), eps=1e-05, elementwise_affine=True)
) total_norm 1286.7008056640625
2023-09-14 11:29:50 | INFO | fairseq.trainer | layer TransformerDecoderLayerBase(
  (dropout_module): FairseqDropout()
  (self_attn): MultiheadAttention(
    (dropout_module): FairseqDropout()
    (k_proj): Linear(in_features=2048, out_features=2048, bias=True)
    (v_proj): Linear(in_features=2048, out_features=2048, bias=True)
    (q_proj): Linear(in_features=2048, out_features=2048, bias=True)
    (out_proj): Linear(in_features=2048, out_features=2048, bias=True)
  )
  (activation_dropout_module): FairseqDropout()
  (self_attn_layer_norm): LayerNorm((2048,), eps=1e-05, elementwise_affine=True)
  (fc1): Linear(in_features=2048, out_features=8192, bias=True)
  (fc2): Linear(in_features=8192, out_features=2048, bias=True)
  (final_layer_norm): LayerNorm((2048,), eps=1e-05, elementwise_affine=True)
) total_norm 1146.4378662109375
2023-09-14 11:29:50 | INFO | fairseq.trainer | layer TransformerDecoderLayerBase(
  (dropout_module): FairseqDropout()
  (self_attn): MultiheadAttention(
    (dropout_module): FairseqDropout()
    (k_proj): Linear(in_features=2048, out_features=2048, bias=True)
    (v_proj): Linear(in_features=2048, out_features=2048, bias=True)
    (q_proj): Linear(in_features=2048, out_features=2048, bias=True)
    (out_proj): Linear(in_features=2048, out_features=2048, bias=True)
  )
  (activation_dropout_module): FairseqDropout()
  (self_attn_layer_norm): LayerNorm((2048,), eps=1e-05, elementwise_affine=True)
  (fc1): Linear(in_features=2048, out_features=8192, bias=True)
  (fc2): Linear(in_features=8192, out_features=2048, bias=True)
  (final_layer_norm): LayerNorm((2048,), eps=1e-05, elementwise_affine=True)
) total_norm 995.7059936523438
2023-09-14 11:29:50 | INFO | fairseq.trainer | layer TransformerDecoderLayerBase(
  (dropout_module): FairseqDropout()
  (self_attn): MultiheadAttention(
    (dropout_module): FairseqDropout()
    (k_proj): Linear(in_features=2048, out_features=2048, bias=True)
    (v_proj): Linear(in_features=2048, out_features=2048, bias=True)
    (q_proj): Linear(in_features=2048, out_features=2048, bias=True)
    (out_proj): Linear(in_features=2048, out_features=2048, bias=True)
  )
  (activation_dropout_module): FairseqDropout()
  (self_attn_layer_norm): LayerNorm((2048,), eps=1e-05, elementwise_affine=True)
  (fc1): Linear(in_features=2048, out_features=8192, bias=True)
  (fc2): Linear(in_features=8192, out_features=2048, bias=True)
  (final_layer_norm): LayerNorm((2048,), eps=1e-05, elementwise_affine=True)
) total_norm 903.0717163085938
2023-09-14 11:29:50 | INFO | fairseq.trainer | layer TransformerDecoderLayerBase(
  (dropout_module): FairseqDropout()
  (self_attn): MultiheadAttention(
    (dropout_module): FairseqDropout()
    (k_proj): Linear(in_features=2048, out_features=2048, bias=True)
    (v_proj): Linear(in_features=2048, out_features=2048, bias=True)
    (q_proj): Linear(in_features=2048, out_features=2048, bias=True)
    (out_proj): Linear(in_features=2048, out_features=2048, bias=True)
  )
  (activation_dropout_module): FairseqDropout()
  (self_attn_layer_norm): LayerNorm((2048,), eps=1e-05, elementwise_affine=True)
  (fc1): Linear(in_features=2048, out_features=8192, bias=True)
  (fc2): Linear(in_features=8192, out_features=2048, bias=True)
  (final_layer_norm): LayerNorm((2048,), eps=1e-05, elementwise_affine=True)
) total_norm 703.490234375
2023-09-14 11:29:50 | INFO | fairseq.trainer | layer TransformerDecoderLayerBase(
  (dropout_module): FairseqDropout()
  (self_attn): MultiheadAttention(
    (dropout_module): FairseqDropout()
    (k_proj): Linear(in_features=2048, out_features=2048, bias=True)
    (v_proj): Linear(in_features=2048, out_features=2048, bias=True)
    (q_proj): Linear(in_features=2048, out_features=2048, bias=True)
    (out_proj): Linear(in_features=2048, out_features=2048, bias=True)
  )
  (activation_dropout_module): FairseqDropout()
  (self_attn_layer_norm): LayerNorm((2048,), eps=1e-05, elementwise_affine=True)
  (fc1): Linear(in_features=2048, out_features=8192, bias=True)
  (fc2): Linear(in_features=8192, out_features=2048, bias=True)
  (final_layer_norm): LayerNorm((2048,), eps=1e-05, elementwise_affine=True)
) total_norm 585.821044921875
2023-09-14 11:29:50 | INFO | fairseq.trainer | layer TransformerDecoderLayerBase(
  (dropout_module): FairseqDropout()
  (self_attn): MultiheadAttention(
    (dropout_module): FairseqDropout()
    (k_proj): Linear(in_features=2048, out_features=2048, bias=True)
    (v_proj): Linear(in_features=2048, out_features=2048, bias=True)
    (q_proj): Linear(in_features=2048, out_features=2048, bias=True)
    (out_proj): Linear(in_features=2048, out_features=2048, bias=True)
  )
  (activation_dropout_module): FairseqDropout()
  (self_attn_layer_norm): LayerNorm((2048,), eps=1e-05, elementwise_affine=True)
  (fc1): Linear(in_features=2048, out_features=8192, bias=True)
  (fc2): Linear(in_features=8192, out_features=2048, bias=True)
  (final_layer_norm): LayerNorm((2048,), eps=1e-05, elementwise_affine=True)
) total_norm 575.6953735351562
2023-09-14 11:29:50 | INFO | fairseq.trainer | layer TransformerDecoderLayerBase(
  (dropout_module): FairseqDropout()
  (self_attn): MultiheadAttention(
    (dropout_module): FairseqDropout()
    (k_proj): Linear(in_features=2048, out_features=2048, bias=True)
    (v_proj): Linear(in_features=2048, out_features=2048, bias=True)
    (q_proj): Linear(in_features=2048, out_features=2048, bias=True)
    (out_proj): Linear(in_features=2048, out_features=2048, bias=True)
  )
  (activation_dropout_module): FairseqDropout()
  (self_attn_layer_norm): LayerNorm((2048,), eps=1e-05, elementwise_affine=True)
  (fc1): Linear(in_features=2048, out_features=8192, bias=True)
  (fc2): Linear(in_features=8192, out_features=2048, bias=True)
  (final_layer_norm): LayerNorm((2048,), eps=1e-05, elementwise_affine=True)
) total_norm 649.4494018554688
2023-09-14 11:29:50 | INFO | fairseq.trainer | layer TransformerDecoderLayerBase(
  (dropout_module): FairseqDropout()
  (self_attn): MultiheadAttention(
    (dropout_module): FairseqDropout()
    (k_proj): Linear(in_features=2048, out_features=2048, bias=True)
    (v_proj): Linear(in_features=2048, out_features=2048, bias=True)
    (q_proj): Linear(in_features=2048, out_features=2048, bias=True)
    (out_proj): Linear(in_features=2048, out_features=2048, bias=True)
  )
  (activation_dropout_module): FairseqDropout()
  (self_attn_layer_norm): LayerNorm((2048,), eps=1e-05, elementwise_affine=True)
  (fc1): Linear(in_features=2048, out_features=8192, bias=True)
  (fc2): Linear(in_features=8192, out_features=2048, bias=True)
  (final_layer_norm): LayerNorm((2048,), eps=1e-05, elementwise_affine=True)
) total_norm 707.563232421875
2023-09-14 11:29:50 | INFO | fairseq.trainer | layer TransformerDecoderLayerBase(
  (dropout_module): FairseqDropout()
  (self_attn): MultiheadAttention(
    (dropout_module): FairseqDropout()
    (k_proj): Linear(in_features=2048, out_features=2048, bias=True)
    (v_proj): Linear(in_features=2048, out_features=2048, bias=True)
    (q_proj): Linear(in_features=2048, out_features=2048, bias=True)
    (out_proj): Linear(in_features=2048, out_features=2048, bias=True)
  )
  (activation_dropout_module): FairseqDropout()
  (self_attn_layer_norm): LayerNorm((2048,), eps=1e-05, elementwise_affine=True)
  (fc1): Linear(in_features=2048, out_features=8192, bias=True)
  (fc2): Linear(in_features=8192, out_features=2048, bias=True)
  (final_layer_norm): LayerNorm((2048,), eps=1e-05, elementwise_affine=True)
) total_norm 652.5441284179688
2023-09-14 11:29:50 | INFO | fairseq.trainer | layer TransformerDecoderLayerBase(
  (dropout_module): FairseqDropout()
  (self_attn): MultiheadAttention(
    (dropout_module): FairseqDropout()
    (k_proj): Linear(in_features=2048, out_features=2048, bias=True)
    (v_proj): Linear(in_features=2048, out_features=2048, bias=True)
    (q_proj): Linear(in_features=2048, out_features=2048, bias=True)
    (out_proj): Linear(in_features=2048, out_features=2048, bias=True)
  )
  (activation_dropout_module): FairseqDropout()
  (self_attn_layer_norm): LayerNorm((2048,), eps=1e-05, elementwise_affine=True)
  (fc1): Linear(in_features=2048, out_features=8192, bias=True)
  (fc2): Linear(in_features=8192, out_features=2048, bias=True)
  (final_layer_norm): LayerNorm((2048,), eps=1e-05, elementwise_affine=True)
) total_norm 561.5482177734375
2023-09-14 11:29:50 | INFO | fairseq.trainer | layer TransformerDecoderLayerBase(
  (dropout_module): FairseqDropout()
  (self_attn): MultiheadAttention(
    (dropout_module): FairseqDropout()
    (k_proj): Linear(in_features=2048, out_features=2048, bias=True)
    (v_proj): Linear(in_features=2048, out_features=2048, bias=True)
    (q_proj): Linear(in_features=2048, out_features=2048, bias=True)
    (out_proj): Linear(in_features=2048, out_features=2048, bias=True)
  )
  (activation_dropout_module): FairseqDropout()
  (self_attn_layer_norm): LayerNorm((2048,), eps=1e-05, elementwise_affine=True)
  (fc1): Linear(in_features=2048, out_features=8192, bias=True)
  (fc2): Linear(in_features=8192, out_features=2048, bias=True)
  (final_layer_norm): LayerNorm((2048,), eps=1e-05, elementwise_affine=True)
) total_norm 505.993408203125
2023-09-14 11:29:50 | INFO | fairseq.trainer | layer TransformerDecoderLayerBase(
  (dropout_module): FairseqDropout()
  (self_attn): MultiheadAttention(
    (dropout_module): FairseqDropout()
    (k_proj): Linear(in_features=2048, out_features=2048, bias=True)
    (v_proj): Linear(in_features=2048, out_features=2048, bias=True)
    (q_proj): Linear(in_features=2048, out_features=2048, bias=True)
    (out_proj): Linear(in_features=2048, out_features=2048, bias=True)
  )
  (activation_dropout_module): FairseqDropout()
  (self_attn_layer_norm): LayerNorm((2048,), eps=1e-05, elementwise_affine=True)
  (fc1): Linear(in_features=2048, out_features=8192, bias=True)
  (fc2): Linear(in_features=8192, out_features=2048, bias=True)
  (final_layer_norm): LayerNorm((2048,), eps=1e-05, elementwise_affine=True)
) total_norm 432.5387268066406
2023-09-14 11:29:50 | INFO | fairseq.trainer | layer TransformerDecoderLayerBase(
  (dropout_module): FairseqDropout()
  (self_attn): MultiheadAttention(
    (dropout_module): FairseqDropout()
    (k_proj): Linear(in_features=2048, out_features=2048, bias=True)
    (v_proj): Linear(in_features=2048, out_features=2048, bias=True)
    (q_proj): Linear(in_features=2048, out_features=2048, bias=True)
    (out_proj): Linear(in_features=2048, out_features=2048, bias=True)
  )
  (activation_dropout_module): FairseqDropout()
  (self_attn_layer_norm): LayerNorm((2048,), eps=1e-05, elementwise_affine=True)
  (fc1): Linear(in_features=2048, out_features=8192, bias=True)
  (fc2): Linear(in_features=8192, out_features=2048, bias=True)
  (final_layer_norm): LayerNorm((2048,), eps=1e-05, elementwise_affine=True)
) total_norm 400.367919921875
2023-09-14 11:29:50 | INFO | fairseq.trainer | layer TransformerDecoderLayerBase(
  (dropout_module): FairseqDropout()
  (self_attn): MultiheadAttention(
    (dropout_module): FairseqDropout()
    (k_proj): Linear(in_features=2048, out_features=2048, bias=True)
    (v_proj): Linear(in_features=2048, out_features=2048, bias=True)
    (q_proj): Linear(in_features=2048, out_features=2048, bias=True)
    (out_proj): Linear(in_features=2048, out_features=2048, bias=True)
  )
  (activation_dropout_module): FairseqDropout()
  (self_attn_layer_norm): LayerNorm((2048,), eps=1e-05, elementwise_affine=True)
  (fc1): Linear(in_features=2048, out_features=8192, bias=True)
  (fc2): Linear(in_features=8192, out_features=2048, bias=True)
  (final_layer_norm): LayerNorm((2048,), eps=1e-05, elementwise_affine=True)
) total_norm 441.0133361816406
2023-09-14 11:29:50 | INFO | fairseq.trainer | layer TransformerDecoderLayerBase(
  (dropout_module): FairseqDropout()
  (self_attn): MultiheadAttention(
    (dropout_module): FairseqDropout()
    (k_proj): Linear(in_features=2048, out_features=2048, bias=True)
    (v_proj): Linear(in_features=2048, out_features=2048, bias=True)
    (q_proj): Linear(in_features=2048, out_features=2048, bias=True)
    (out_proj): Linear(in_features=2048, out_features=2048, bias=True)
  )
  (activation_dropout_module): FairseqDropout()
  (self_attn_layer_norm): LayerNorm((2048,), eps=1e-05, elementwise_affine=True)
  (fc1): Linear(in_features=2048, out_features=8192, bias=True)
  (fc2): Linear(in_features=8192, out_features=2048, bias=True)
  (final_layer_norm): LayerNorm((2048,), eps=1e-05, elementwise_affine=True)
) total_norm 579.5910034179688
2023-09-14 11:29:50 | INFO | train_inner | epoch 001:      4 / 32 loss=443.601, sample_size=48, ntokens=49, wps=17.5, ups=0.36, wpb=49, bsz=1, num_updates=4, lr=0.003, gnorm=34.875, clip=100, loss_scale=4, train_wall=3, gb_free=16.8, wall=14
2023-09-14 11:29:52 | INFO | fairseq.trainer | layer TransformerDecoderLayerBase(
  (dropout_module): FairseqDropout()
  (self_attn): MultiheadAttention(
    (dropout_module): FairseqDropout()
    (k_proj): Linear(in_features=2048, out_features=2048, bias=True)
    (v_proj): Linear(in_features=2048, out_features=2048, bias=True)
    (q_proj): Linear(in_features=2048, out_features=2048, bias=True)
    (out_proj): Linear(in_features=2048, out_features=2048, bias=True)
  )
  (activation_dropout_module): FairseqDropout()
  (self_attn_layer_norm): LayerNorm((2048,), eps=1e-05, elementwise_affine=True)
  (fc1): Linear(in_features=2048, out_features=8192, bias=True)
  (fc2): Linear(in_features=8192, out_features=2048, bias=True)
  (final_layer_norm): LayerNorm((2048,), eps=1e-05, elementwise_affine=True)
) total_norm 7055.49951171875
2023-09-14 11:29:52 | INFO | fairseq.trainer | layer TransformerDecoderLayerBase(
  (dropout_module): FairseqDropout()
  (self_attn): MultiheadAttention(
    (dropout_module): FairseqDropout()
    (k_proj): Linear(in_features=2048, out_features=2048, bias=True)
    (v_proj): Linear(in_features=2048, out_features=2048, bias=True)
    (q_proj): Linear(in_features=2048, out_features=2048, bias=True)
    (out_proj): Linear(in_features=2048, out_features=2048, bias=True)
  )
  (activation_dropout_module): FairseqDropout()
  (self_attn_layer_norm): LayerNorm((2048,), eps=1e-05, elementwise_affine=True)
  (fc1): Linear(in_features=2048, out_features=8192, bias=True)
  (fc2): Linear(in_features=8192, out_features=2048, bias=True)
  (final_layer_norm): LayerNorm((2048,), eps=1e-05, elementwise_affine=True)
) total_norm 5070.46826171875
2023-09-14 11:29:52 | INFO | fairseq.trainer | layer TransformerDecoderLayerBase(
  (dropout_module): FairseqDropout()
  (self_attn): MultiheadAttention(
    (dropout_module): FairseqDropout()
    (k_proj): Linear(in_features=2048, out_features=2048, bias=True)
    (v_proj): Linear(in_features=2048, out_features=2048, bias=True)
    (q_proj): Linear(in_features=2048, out_features=2048, bias=True)
    (out_proj): Linear(in_features=2048, out_features=2048, bias=True)
  )
  (activation_dropout_module): FairseqDropout()
  (self_attn_layer_norm): LayerNorm((2048,), eps=1e-05, elementwise_affine=True)
  (fc1): Linear(in_features=2048, out_features=8192, bias=True)
  (fc2): Linear(in_features=8192, out_features=2048, bias=True)
  (final_layer_norm): LayerNorm((2048,), eps=1e-05, elementwise_affine=True)
) total_norm 3258.5595703125
2023-09-14 11:29:52 | INFO | fairseq.trainer | layer TransformerDecoderLayerBase(
  (dropout_module): FairseqDropout()
  (self_attn): MultiheadAttention(
    (dropout_module): FairseqDropout()
    (k_proj): Linear(in_features=2048, out_features=2048, bias=True)
    (v_proj): Linear(in_features=2048, out_features=2048, bias=True)
    (q_proj): Linear(in_features=2048, out_features=2048, bias=True)
    (out_proj): Linear(in_features=2048, out_features=2048, bias=True)
  )
  (activation_dropout_module): FairseqDropout()
  (self_attn_layer_norm): LayerNorm((2048,), eps=1e-05, elementwise_affine=True)
  (fc1): Linear(in_features=2048, out_features=8192, bias=True)
  (fc2): Linear(in_features=8192, out_features=2048, bias=True)
  (final_layer_norm): LayerNorm((2048,), eps=1e-05, elementwise_affine=True)
) total_norm 2325.77734375
2023-09-14 11:29:52 | INFO | fairseq.trainer | layer TransformerDecoderLayerBase(
  (dropout_module): FairseqDropout()
  (self_attn): MultiheadAttention(
    (dropout_module): FairseqDropout()
    (k_proj): Linear(in_features=2048, out_features=2048, bias=True)
    (v_proj): Linear(in_features=2048, out_features=2048, bias=True)
    (q_proj): Linear(in_features=2048, out_features=2048, bias=True)
    (out_proj): Linear(in_features=2048, out_features=2048, bias=True)
  )
  (activation_dropout_module): FairseqDropout()
  (self_attn_layer_norm): LayerNorm((2048,), eps=1e-05, elementwise_affine=True)
  (fc1): Linear(in_features=2048, out_features=8192, bias=True)
  (fc2): Linear(in_features=8192, out_features=2048, bias=True)
  (final_layer_norm): LayerNorm((2048,), eps=1e-05, elementwise_affine=True)
) total_norm 1659.734619140625
2023-09-14 11:29:52 | INFO | fairseq.trainer | layer TransformerDecoderLayerBase(
  (dropout_module): FairseqDropout()
  (self_attn): MultiheadAttention(
    (dropout_module): FairseqDropout()
    (k_proj): Linear(in_features=2048, out_features=2048, bias=True)
    (v_proj): Linear(in_features=2048, out_features=2048, bias=True)
    (q_proj): Linear(in_features=2048, out_features=2048, bias=True)
    (out_proj): Linear(in_features=2048, out_features=2048, bias=True)
  )
  (activation_dropout_module): FairseqDropout()
  (self_attn_layer_norm): LayerNorm((2048,), eps=1e-05, elementwise_affine=True)
  (fc1): Linear(in_features=2048, out_features=8192, bias=True)
  (fc2): Linear(in_features=8192, out_features=2048, bias=True)
  (final_layer_norm): LayerNorm((2048,), eps=1e-05, elementwise_affine=True)
) total_norm 1326.11962890625
2023-09-14 11:29:52 | INFO | fairseq.trainer | layer TransformerDecoderLayerBase(
  (dropout_module): FairseqDropout()
  (self_attn): MultiheadAttention(
    (dropout_module): FairseqDropout()
    (k_proj): Linear(in_features=2048, out_features=2048, bias=True)
    (v_proj): Linear(in_features=2048, out_features=2048, bias=True)
    (q_proj): Linear(in_features=2048, out_features=2048, bias=True)
    (out_proj): Linear(in_features=2048, out_features=2048, bias=True)
  )
  (activation_dropout_module): FairseqDropout()
  (self_attn_layer_norm): LayerNorm((2048,), eps=1e-05, elementwise_affine=True)
  (fc1): Linear(in_features=2048, out_features=8192, bias=True)
  (fc2): Linear(in_features=8192, out_features=2048, bias=True)
  (final_layer_norm): LayerNorm((2048,), eps=1e-05, elementwise_affine=True)
) total_norm 873.9011840820312
2023-09-14 11:29:52 | INFO | fairseq.trainer | layer TransformerDecoderLayerBase(
  (dropout_module): FairseqDropout()
  (self_attn): MultiheadAttention(
    (dropout_module): FairseqDropout()
    (k_proj): Linear(in_features=2048, out_features=2048, bias=True)
    (v_proj): Linear(in_features=2048, out_features=2048, bias=True)
    (q_proj): Linear(in_features=2048, out_features=2048, bias=True)
    (out_proj): Linear(in_features=2048, out_features=2048, bias=True)
  )
  (activation_dropout_module): FairseqDropout()
  (self_attn_layer_norm): LayerNorm((2048,), eps=1e-05, elementwise_affine=True)
  (fc1): Linear(in_features=2048, out_features=8192, bias=True)
  (fc2): Linear(in_features=8192, out_features=2048, bias=True)
  (final_layer_norm): LayerNorm((2048,), eps=1e-05, elementwise_affine=True)
) total_norm 642.4691162109375
2023-09-14 11:29:52 | INFO | fairseq.trainer | layer TransformerDecoderLayerBase(
  (dropout_module): FairseqDropout()
  (self_attn): MultiheadAttention(
    (dropout_module): FairseqDropout()
    (k_proj): Linear(in_features=2048, out_features=2048, bias=True)
    (v_proj): Linear(in_features=2048, out_features=2048, bias=True)
    (q_proj): Linear(in_features=2048, out_features=2048, bias=True)
    (out_proj): Linear(in_features=2048, out_features=2048, bias=True)
  )
  (activation_dropout_module): FairseqDropout()
  (self_attn_layer_norm): LayerNorm((2048,), eps=1e-05, elementwise_affine=True)
  (fc1): Linear(in_features=2048, out_features=8192, bias=True)
  (fc2): Linear(in_features=8192, out_features=2048, bias=True)
  (final_layer_norm): LayerNorm((2048,), eps=1e-05, elementwise_affine=True)
) total_norm 565.84814453125
2023-09-14 11:29:52 | INFO | fairseq.trainer | layer TransformerDecoderLayerBase(
  (dropout_module): FairseqDropout()
  (self_attn): MultiheadAttention(
    (dropout_module): FairseqDropout()
    (k_proj): Linear(in_features=2048, out_features=2048, bias=True)
    (v_proj): Linear(in_features=2048, out_features=2048, bias=True)
    (q_proj): Linear(in_features=2048, out_features=2048, bias=True)
    (out_proj): Linear(in_features=2048, out_features=2048, bias=True)
  )
  (activation_dropout_module): FairseqDropout()
  (self_attn_layer_norm): LayerNorm((2048,), eps=1e-05, elementwise_affine=True)
  (fc1): Linear(in_features=2048, out_features=8192, bias=True)
  (fc2): Linear(in_features=8192, out_features=2048, bias=True)
  (final_layer_norm): LayerNorm((2048,), eps=1e-05, elementwise_affine=True)
) total_norm 502.30474853515625
2023-09-14 11:29:52 | INFO | fairseq.trainer | layer TransformerDecoderLayerBase(
  (dropout_module): FairseqDropout()
  (self_attn): MultiheadAttention(
    (dropout_module): FairseqDropout()
    (k_proj): Linear(in_features=2048, out_features=2048, bias=True)
    (v_proj): Linear(in_features=2048, out_features=2048, bias=True)
    (q_proj): Linear(in_features=2048, out_features=2048, bias=True)
    (out_proj): Linear(in_features=2048, out_features=2048, bias=True)
  )
  (activation_dropout_module): FairseqDropout()
  (self_attn_layer_norm): LayerNorm((2048,), eps=1e-05, elementwise_affine=True)
  (fc1): Linear(in_features=2048, out_features=8192, bias=True)
  (fc2): Linear(in_features=8192, out_features=2048, bias=True)
  (final_layer_norm): LayerNorm((2048,), eps=1e-05, elementwise_affine=True)
) total_norm 412.4062194824219
2023-09-14 11:29:52 | INFO | fairseq.trainer | layer TransformerDecoderLayerBase(
  (dropout_module): FairseqDropout()
  (self_attn): MultiheadAttention(
    (dropout_module): FairseqDropout()
    (k_proj): Linear(in_features=2048, out_features=2048, bias=True)
    (v_proj): Linear(in_features=2048, out_features=2048, bias=True)
    (q_proj): Linear(in_features=2048, out_features=2048, bias=True)
    (out_proj): Linear(in_features=2048, out_features=2048, bias=True)
  )
  (activation_dropout_module): FairseqDropout()
  (self_attn_layer_norm): LayerNorm((2048,), eps=1e-05, elementwise_affine=True)
  (fc1): Linear(in_features=2048, out_features=8192, bias=True)
  (fc2): Linear(in_features=8192, out_features=2048, bias=True)
  (final_layer_norm): LayerNorm((2048,), eps=1e-05, elementwise_affine=True)
) total_norm 391.7940673828125
2023-09-14 11:29:52 | INFO | fairseq.trainer | layer TransformerDecoderLayerBase(
  (dropout_module): FairseqDropout()
  (self_attn): MultiheadAttention(
    (dropout_module): FairseqDropout()
    (k_proj): Linear(in_features=2048, out_features=2048, bias=True)
    (v_proj): Linear(in_features=2048, out_features=2048, bias=True)
    (q_proj): Linear(in_features=2048, out_features=2048, bias=True)
    (out_proj): Linear(in_features=2048, out_features=2048, bias=True)
  )
  (activation_dropout_module): FairseqDropout()
  (self_attn_layer_norm): LayerNorm((2048,), eps=1e-05, elementwise_affine=True)
  (fc1): Linear(in_features=2048, out_features=8192, bias=True)
  (fc2): Linear(in_features=8192, out_features=2048, bias=True)
  (final_layer_norm): LayerNorm((2048,), eps=1e-05, elementwise_affine=True)
) total_norm 339.12255859375
2023-09-14 11:29:52 | INFO | fairseq.trainer | layer TransformerDecoderLayerBase(
  (dropout_module): FairseqDropout()
  (self_attn): MultiheadAttention(
    (dropout_module): FairseqDropout()
    (k_proj): Linear(in_features=2048, out_features=2048, bias=True)
    (v_proj): Linear(in_features=2048, out_features=2048, bias=True)
    (q_proj): Linear(in_features=2048, out_features=2048, bias=True)
    (out_proj): Linear(in_features=2048, out_features=2048, bias=True)
  )
  (activation_dropout_module): FairseqDropout()
  (self_attn_layer_norm): LayerNorm((2048,), eps=1e-05, elementwise_affine=True)
  (fc1): Linear(in_features=2048, out_features=8192, bias=True)
  (fc2): Linear(in_features=8192, out_features=2048, bias=True)
  (final_layer_norm): LayerNorm((2048,), eps=1e-05, elementwise_affine=True)
) total_norm 316.84783935546875
2023-09-14 11:29:52 | INFO | fairseq.trainer | layer TransformerDecoderLayerBase(
  (dropout_module): FairseqDropout()
  (self_attn): MultiheadAttention(
    (dropout_module): FairseqDropout()
    (k_proj): Linear(in_features=2048, out_features=2048, bias=True)
    (v_proj): Linear(in_features=2048, out_features=2048, bias=True)
    (q_proj): Linear(in_features=2048, out_features=2048, bias=True)
    (out_proj): Linear(in_features=2048, out_features=2048, bias=True)
  )
  (activation_dropout_module): FairseqDropout()
  (self_attn_layer_norm): LayerNorm((2048,), eps=1e-05, elementwise_affine=True)
  (fc1): Linear(in_features=2048, out_features=8192, bias=True)
  (fc2): Linear(in_features=8192, out_features=2048, bias=True)
  (final_layer_norm): LayerNorm((2048,), eps=1e-05, elementwise_affine=True)
) total_norm 323.2414855957031
2023-09-14 11:29:52 | INFO | fairseq.trainer | layer TransformerDecoderLayerBase(
  (dropout_module): FairseqDropout()
  (self_attn): MultiheadAttention(
    (dropout_module): FairseqDropout()
    (k_proj): Linear(in_features=2048, out_features=2048, bias=True)
    (v_proj): Linear(in_features=2048, out_features=2048, bias=True)
    (q_proj): Linear(in_features=2048, out_features=2048, bias=True)
    (out_proj): Linear(in_features=2048, out_features=2048, bias=True)
  )
  (activation_dropout_module): FairseqDropout()
  (self_attn_layer_norm): LayerNorm((2048,), eps=1e-05, elementwise_affine=True)
  (fc1): Linear(in_features=2048, out_features=8192, bias=True)
  (fc2): Linear(in_features=8192, out_features=2048, bias=True)
  (final_layer_norm): LayerNorm((2048,), eps=1e-05, elementwise_affine=True)
) total_norm 374.3917236328125
2023-09-14 11:29:52 | INFO | fairseq.trainer | layer TransformerDecoderLayerBase(
  (dropout_module): FairseqDropout()
  (self_attn): MultiheadAttention(
    (dropout_module): FairseqDropout()
    (k_proj): Linear(in_features=2048, out_features=2048, bias=True)
    (v_proj): Linear(in_features=2048, out_features=2048, bias=True)
    (q_proj): Linear(in_features=2048, out_features=2048, bias=True)
    (out_proj): Linear(in_features=2048, out_features=2048, bias=True)
  )
  (activation_dropout_module): FairseqDropout()
  (self_attn_layer_norm): LayerNorm((2048,), eps=1e-05, elementwise_affine=True)
  (fc1): Linear(in_features=2048, out_features=8192, bias=True)
  (fc2): Linear(in_features=8192, out_features=2048, bias=True)
  (final_layer_norm): LayerNorm((2048,), eps=1e-05, elementwise_affine=True)
) total_norm 355.9129638671875
2023-09-14 11:29:52 | INFO | fairseq.trainer | layer TransformerDecoderLayerBase(
  (dropout_module): FairseqDropout()
  (self_attn): MultiheadAttention(
    (dropout_module): FairseqDropout()
    (k_proj): Linear(in_features=2048, out_features=2048, bias=True)
    (v_proj): Linear(in_features=2048, out_features=2048, bias=True)
    (q_proj): Linear(in_features=2048, out_features=2048, bias=True)
    (out_proj): Linear(in_features=2048, out_features=2048, bias=True)
  )
  (activation_dropout_module): FairseqDropout()
  (self_attn_layer_norm): LayerNorm((2048,), eps=1e-05, elementwise_affine=True)
  (fc1): Linear(in_features=2048, out_features=8192, bias=True)
  (fc2): Linear(in_features=8192, out_features=2048, bias=True)
  (final_layer_norm): LayerNorm((2048,), eps=1e-05, elementwise_affine=True)
) total_norm 368.03875732421875
2023-09-14 11:29:52 | INFO | fairseq.trainer | layer TransformerDecoderLayerBase(
  (dropout_module): FairseqDropout()
  (self_attn): MultiheadAttention(
    (dropout_module): FairseqDropout()
    (k_proj): Linear(in_features=2048, out_features=2048, bias=True)
    (v_proj): Linear(in_features=2048, out_features=2048, bias=True)
    (q_proj): Linear(in_features=2048, out_features=2048, bias=True)
    (out_proj): Linear(in_features=2048, out_features=2048, bias=True)
  )
  (activation_dropout_module): FairseqDropout()
  (self_attn_layer_norm): LayerNorm((2048,), eps=1e-05, elementwise_affine=True)
  (fc1): Linear(in_features=2048, out_features=8192, bias=True)
  (fc2): Linear(in_features=8192, out_features=2048, bias=True)
  (final_layer_norm): LayerNorm((2048,), eps=1e-05, elementwise_affine=True)
) total_norm 323.4905700683594
2023-09-14 11:29:52 | INFO | fairseq.trainer | layer TransformerDecoderLayerBase(
  (dropout_module): FairseqDropout()
  (self_attn): MultiheadAttention(
    (dropout_module): FairseqDropout()
    (k_proj): Linear(in_features=2048, out_features=2048, bias=True)
    (v_proj): Linear(in_features=2048, out_features=2048, bias=True)
    (q_proj): Linear(in_features=2048, out_features=2048, bias=True)
    (out_proj): Linear(in_features=2048, out_features=2048, bias=True)
  )
  (activation_dropout_module): FairseqDropout()
  (self_attn_layer_norm): LayerNorm((2048,), eps=1e-05, elementwise_affine=True)
  (fc1): Linear(in_features=2048, out_features=8192, bias=True)
  (fc2): Linear(in_features=8192, out_features=2048, bias=True)
  (final_layer_norm): LayerNorm((2048,), eps=1e-05, elementwise_affine=True)
) total_norm 289.3757019042969
2023-09-14 11:29:52 | INFO | fairseq.trainer | layer TransformerDecoderLayerBase(
  (dropout_module): FairseqDropout()
  (self_attn): MultiheadAttention(
    (dropout_module): FairseqDropout()
    (k_proj): Linear(in_features=2048, out_features=2048, bias=True)
    (v_proj): Linear(in_features=2048, out_features=2048, bias=True)
    (q_proj): Linear(in_features=2048, out_features=2048, bias=True)
    (out_proj): Linear(in_features=2048, out_features=2048, bias=True)
  )
  (activation_dropout_module): FairseqDropout()
  (self_attn_layer_norm): LayerNorm((2048,), eps=1e-05, elementwise_affine=True)
  (fc1): Linear(in_features=2048, out_features=8192, bias=True)
  (fc2): Linear(in_features=8192, out_features=2048, bias=True)
  (final_layer_norm): LayerNorm((2048,), eps=1e-05, elementwise_affine=True)
) total_norm 268.3421936035156
2023-09-14 11:29:52 | INFO | fairseq.trainer | layer TransformerDecoderLayerBase(
  (dropout_module): FairseqDropout()
  (self_attn): MultiheadAttention(
    (dropout_module): FairseqDropout()
    (k_proj): Linear(in_features=2048, out_features=2048, bias=True)
    (v_proj): Linear(in_features=2048, out_features=2048, bias=True)
    (q_proj): Linear(in_features=2048, out_features=2048, bias=True)
    (out_proj): Linear(in_features=2048, out_features=2048, bias=True)
  )
  (activation_dropout_module): FairseqDropout()
  (self_attn_layer_norm): LayerNorm((2048,), eps=1e-05, elementwise_affine=True)
  (fc1): Linear(in_features=2048, out_features=8192, bias=True)
  (fc2): Linear(in_features=8192, out_features=2048, bias=True)
  (final_layer_norm): LayerNorm((2048,), eps=1e-05, elementwise_affine=True)
) total_norm 251.32186889648438
2023-09-14 11:29:52 | INFO | fairseq.trainer | layer TransformerDecoderLayerBase(
  (dropout_module): FairseqDropout()
  (self_attn): MultiheadAttention(
    (dropout_module): FairseqDropout()
    (k_proj): Linear(in_features=2048, out_features=2048, bias=True)
    (v_proj): Linear(in_features=2048, out_features=2048, bias=True)
    (q_proj): Linear(in_features=2048, out_features=2048, bias=True)
    (out_proj): Linear(in_features=2048, out_features=2048, bias=True)
  )
  (activation_dropout_module): FairseqDropout()
  (self_attn_layer_norm): LayerNorm((2048,), eps=1e-05, elementwise_affine=True)
  (fc1): Linear(in_features=2048, out_features=8192, bias=True)
  (fc2): Linear(in_features=8192, out_features=2048, bias=True)
  (final_layer_norm): LayerNorm((2048,), eps=1e-05, elementwise_affine=True)
) total_norm 211.67041015625
2023-09-14 11:29:52 | INFO | fairseq.trainer | layer TransformerDecoderLayerBase(
  (dropout_module): FairseqDropout()
  (self_attn): MultiheadAttention(
    (dropout_module): FairseqDropout()
    (k_proj): Linear(in_features=2048, out_features=2048, bias=True)
    (v_proj): Linear(in_features=2048, out_features=2048, bias=True)
    (q_proj): Linear(in_features=2048, out_features=2048, bias=True)
    (out_proj): Linear(in_features=2048, out_features=2048, bias=True)
  )
  (activation_dropout_module): FairseqDropout()
  (self_attn_layer_norm): LayerNorm((2048,), eps=1e-05, elementwise_affine=True)
  (fc1): Linear(in_features=2048, out_features=8192, bias=True)
  (fc2): Linear(in_features=8192, out_features=2048, bias=True)
  (final_layer_norm): LayerNorm((2048,), eps=1e-05, elementwise_affine=True)
) total_norm 407.1244812011719
2023-09-14 11:29:52 | INFO | train_inner | epoch 001:      5 / 32 loss=468.453, sample_size=21, ntokens=22, wps=17.7, ups=0.81, wpb=22, bsz=1, num_updates=5, lr=0.003, gnorm=40.685, clip=100, loss_scale=4, train_wall=1, gb_free=17, wall=15
2023-09-14 11:29:53 | INFO | fairseq.trainer | layer TransformerDecoderLayerBase(
  (dropout_module): FairseqDropout()
  (self_attn): MultiheadAttention(
    (dropout_module): FairseqDropout()
    (k_proj): Linear(in_features=2048, out_features=2048, bias=True)
    (v_proj): Linear(in_features=2048, out_features=2048, bias=True)
    (q_proj): Linear(in_features=2048, out_features=2048, bias=True)
    (out_proj): Linear(in_features=2048, out_features=2048, bias=True)
  )
  (activation_dropout_module): FairseqDropout()
  (self_attn_layer_norm): LayerNorm((2048,), eps=1e-05, elementwise_affine=True)
  (fc1): Linear(in_features=2048, out_features=8192, bias=True)
  (fc2): Linear(in_features=8192, out_features=2048, bias=True)
  (final_layer_norm): LayerNorm((2048,), eps=1e-05, elementwise_affine=True)
) total_norm 5873.58251953125
2023-09-14 11:29:53 | INFO | fairseq.trainer | layer TransformerDecoderLayerBase(
  (dropout_module): FairseqDropout()
  (self_attn): MultiheadAttention(
    (dropout_module): FairseqDropout()
    (k_proj): Linear(in_features=2048, out_features=2048, bias=True)
    (v_proj): Linear(in_features=2048, out_features=2048, bias=True)
    (q_proj): Linear(in_features=2048, out_features=2048, bias=True)
    (out_proj): Linear(in_features=2048, out_features=2048, bias=True)
  )
  (activation_dropout_module): FairseqDropout()
  (self_attn_layer_norm): LayerNorm((2048,), eps=1e-05, elementwise_affine=True)
  (fc1): Linear(in_features=2048, out_features=8192, bias=True)
  (fc2): Linear(in_features=8192, out_features=2048, bias=True)
  (final_layer_norm): LayerNorm((2048,), eps=1e-05, elementwise_affine=True)
) total_norm 4335.00634765625
2023-09-14 11:29:53 | INFO | fairseq.trainer | layer TransformerDecoderLayerBase(
  (dropout_module): FairseqDropout()
  (self_attn): MultiheadAttention(
    (dropout_module): FairseqDropout()
    (k_proj): Linear(in_features=2048, out_features=2048, bias=True)
    (v_proj): Linear(in_features=2048, out_features=2048, bias=True)
    (q_proj): Linear(in_features=2048, out_features=2048, bias=True)
    (out_proj): Linear(in_features=2048, out_features=2048, bias=True)
  )
  (activation_dropout_module): FairseqDropout()
  (self_attn_layer_norm): LayerNorm((2048,), eps=1e-05, elementwise_affine=True)
  (fc1): Linear(in_features=2048, out_features=8192, bias=True)
  (fc2): Linear(in_features=8192, out_features=2048, bias=True)
  (final_layer_norm): LayerNorm((2048,), eps=1e-05, elementwise_affine=True)
) total_norm 2787.81982421875
2023-09-14 11:29:53 | INFO | fairseq.trainer | layer TransformerDecoderLayerBase(
  (dropout_module): FairseqDropout()
  (self_attn): MultiheadAttention(
    (dropout_module): FairseqDropout()
    (k_proj): Linear(in_features=2048, out_features=2048, bias=True)
    (v_proj): Linear(in_features=2048, out_features=2048, bias=True)
    (q_proj): Linear(in_features=2048, out_features=2048, bias=True)
    (out_proj): Linear(in_features=2048, out_features=2048, bias=True)
  )
  (activation_dropout_module): FairseqDropout()
  (self_attn_layer_norm): LayerNorm((2048,), eps=1e-05, elementwise_affine=True)
  (fc1): Linear(in_features=2048, out_features=8192, bias=True)
  (fc2): Linear(in_features=8192, out_features=2048, bias=True)
  (final_layer_norm): LayerNorm((2048,), eps=1e-05, elementwise_affine=True)
) total_norm 1880.593994140625
2023-09-14 11:29:53 | INFO | fairseq.trainer | layer TransformerDecoderLayerBase(
  (dropout_module): FairseqDropout()
  (self_attn): MultiheadAttention(
    (dropout_module): FairseqDropout()
    (k_proj): Linear(in_features=2048, out_features=2048, bias=True)
    (v_proj): Linear(in_features=2048, out_features=2048, bias=True)
    (q_proj): Linear(in_features=2048, out_features=2048, bias=True)
    (out_proj): Linear(in_features=2048, out_features=2048, bias=True)
  )
  (activation_dropout_module): FairseqDropout()
  (self_attn_layer_norm): LayerNorm((2048,), eps=1e-05, elementwise_affine=True)
  (fc1): Linear(in_features=2048, out_features=8192, bias=True)
  (fc2): Linear(in_features=8192, out_features=2048, bias=True)
  (final_layer_norm): LayerNorm((2048,), eps=1e-05, elementwise_affine=True)
) total_norm 1286.1121826171875
2023-09-14 11:29:53 | INFO | fairseq.trainer | layer TransformerDecoderLayerBase(
  (dropout_module): FairseqDropout()
  (self_attn): MultiheadAttention(
    (dropout_module): FairseqDropout()
    (k_proj): Linear(in_features=2048, out_features=2048, bias=True)
    (v_proj): Linear(in_features=2048, out_features=2048, bias=True)
    (q_proj): Linear(in_features=2048, out_features=2048, bias=True)
    (out_proj): Linear(in_features=2048, out_features=2048, bias=True)
  )
  (activation_dropout_module): FairseqDropout()
  (self_attn_layer_norm): LayerNorm((2048,), eps=1e-05, elementwise_affine=True)
  (fc1): Linear(in_features=2048, out_features=8192, bias=True)
  (fc2): Linear(in_features=8192, out_features=2048, bias=True)
  (final_layer_norm): LayerNorm((2048,), eps=1e-05, elementwise_affine=True)
) total_norm 1044.840087890625
2023-09-14 11:29:53 | INFO | fairseq.trainer | layer TransformerDecoderLayerBase(
  (dropout_module): FairseqDropout()
  (self_attn): MultiheadAttention(
    (dropout_module): FairseqDropout()
    (k_proj): Linear(in_features=2048, out_features=2048, bias=True)
    (v_proj): Linear(in_features=2048, out_features=2048, bias=True)
    (q_proj): Linear(in_features=2048, out_features=2048, bias=True)
    (out_proj): Linear(in_features=2048, out_features=2048, bias=True)
  )
  (activation_dropout_module): FairseqDropout()
  (self_attn_layer_norm): LayerNorm((2048,), eps=1e-05, elementwise_affine=True)
  (fc1): Linear(in_features=2048, out_features=8192, bias=True)
  (fc2): Linear(in_features=8192, out_features=2048, bias=True)
  (final_layer_norm): LayerNorm((2048,), eps=1e-05, elementwise_affine=True)
) total_norm 728.9090576171875
2023-09-14 11:29:53 | INFO | fairseq.trainer | layer TransformerDecoderLayerBase(
  (dropout_module): FairseqDropout()
  (self_attn): MultiheadAttention(
    (dropout_module): FairseqDropout()
    (k_proj): Linear(in_features=2048, out_features=2048, bias=True)
    (v_proj): Linear(in_features=2048, out_features=2048, bias=True)
    (q_proj): Linear(in_features=2048, out_features=2048, bias=True)
    (out_proj): Linear(in_features=2048, out_features=2048, bias=True)
  )
  (activation_dropout_module): FairseqDropout()
  (self_attn_layer_norm): LayerNorm((2048,), eps=1e-05, elementwise_affine=True)
  (fc1): Linear(in_features=2048, out_features=8192, bias=True)
  (fc2): Linear(in_features=8192, out_features=2048, bias=True)
  (final_layer_norm): LayerNorm((2048,), eps=1e-05, elementwise_affine=True)
) total_norm 527.4426879882812
2023-09-14 11:29:53 | INFO | fairseq.trainer | layer TransformerDecoderLayerBase(
  (dropout_module): FairseqDropout()
  (self_attn): MultiheadAttention(
    (dropout_module): FairseqDropout()
    (k_proj): Linear(in_features=2048, out_features=2048, bias=True)
    (v_proj): Linear(in_features=2048, out_features=2048, bias=True)
    (q_proj): Linear(in_features=2048, out_features=2048, bias=True)
    (out_proj): Linear(in_features=2048, out_features=2048, bias=True)
  )
  (activation_dropout_module): FairseqDropout()
  (self_attn_layer_norm): LayerNorm((2048,), eps=1e-05, elementwise_affine=True)
  (fc1): Linear(in_features=2048, out_features=8192, bias=True)
  (fc2): Linear(in_features=8192, out_features=2048, bias=True)
  (final_layer_norm): LayerNorm((2048,), eps=1e-05, elementwise_affine=True)
) total_norm 520.832763671875
2023-09-14 11:29:53 | INFO | fairseq.trainer | layer TransformerDecoderLayerBase(
  (dropout_module): FairseqDropout()
  (self_attn): MultiheadAttention(
    (dropout_module): FairseqDropout()
    (k_proj): Linear(in_features=2048, out_features=2048, bias=True)
    (v_proj): Linear(in_features=2048, out_features=2048, bias=True)
    (q_proj): Linear(in_features=2048, out_features=2048, bias=True)
    (out_proj): Linear(in_features=2048, out_features=2048, bias=True)
  )
  (activation_dropout_module): FairseqDropout()
  (self_attn_layer_norm): LayerNorm((2048,), eps=1e-05, elementwise_affine=True)
  (fc1): Linear(in_features=2048, out_features=8192, bias=True)
  (fc2): Linear(in_features=8192, out_features=2048, bias=True)
  (final_layer_norm): LayerNorm((2048,), eps=1e-05, elementwise_affine=True)
) total_norm 467.1037292480469
2023-09-14 11:29:53 | INFO | fairseq.trainer | layer TransformerDecoderLayerBase(
  (dropout_module): FairseqDropout()
  (self_attn): MultiheadAttention(
    (dropout_module): FairseqDropout()
    (k_proj): Linear(in_features=2048, out_features=2048, bias=True)
    (v_proj): Linear(in_features=2048, out_features=2048, bias=True)
    (q_proj): Linear(in_features=2048, out_features=2048, bias=True)
    (out_proj): Linear(in_features=2048, out_features=2048, bias=True)
  )
  (activation_dropout_module): FairseqDropout()
  (self_attn_layer_norm): LayerNorm((2048,), eps=1e-05, elementwise_affine=True)
  (fc1): Linear(in_features=2048, out_features=8192, bias=True)
  (fc2): Linear(in_features=8192, out_features=2048, bias=True)
  (final_layer_norm): LayerNorm((2048,), eps=1e-05, elementwise_affine=True)
) total_norm 384.56341552734375
2023-09-14 11:29:53 | INFO | fairseq.trainer | layer TransformerDecoderLayerBase(
  (dropout_module): FairseqDropout()
  (self_attn): MultiheadAttention(
    (dropout_module): FairseqDropout()
    (k_proj): Linear(in_features=2048, out_features=2048, bias=True)
    (v_proj): Linear(in_features=2048, out_features=2048, bias=True)
    (q_proj): Linear(in_features=2048, out_features=2048, bias=True)
    (out_proj): Linear(in_features=2048, out_features=2048, bias=True)
  )
  (activation_dropout_module): FairseqDropout()
  (self_attn_layer_norm): LayerNorm((2048,), eps=1e-05, elementwise_affine=True)
  (fc1): Linear(in_features=2048, out_features=8192, bias=True)
  (fc2): Linear(in_features=8192, out_features=2048, bias=True)
  (final_layer_norm): LayerNorm((2048,), eps=1e-05, elementwise_affine=True)
) total_norm 358.47283935546875
2023-09-14 11:29:53 | INFO | fairseq.trainer | layer TransformerDecoderLayerBase(
  (dropout_module): FairseqDropout()
  (self_attn): MultiheadAttention(
    (dropout_module): FairseqDropout()
    (k_proj): Linear(in_features=2048, out_features=2048, bias=True)
    (v_proj): Linear(in_features=2048, out_features=2048, bias=True)
    (q_proj): Linear(in_features=2048, out_features=2048, bias=True)
    (out_proj): Linear(in_features=2048, out_features=2048, bias=True)
  )
  (activation_dropout_module): FairseqDropout()
  (self_attn_layer_norm): LayerNorm((2048,), eps=1e-05, elementwise_affine=True)
  (fc1): Linear(in_features=2048, out_features=8192, bias=True)
  (fc2): Linear(in_features=8192, out_features=2048, bias=True)
  (final_layer_norm): LayerNorm((2048,), eps=1e-05, elementwise_affine=True)
) total_norm 320.0263366699219
2023-09-14 11:29:53 | INFO | fairseq.trainer | layer TransformerDecoderLayerBase(
  (dropout_module): FairseqDropout()
  (self_attn): MultiheadAttention(
    (dropout_module): FairseqDropout()
    (k_proj): Linear(in_features=2048, out_features=2048, bias=True)
    (v_proj): Linear(in_features=2048, out_features=2048, bias=True)
    (q_proj): Linear(in_features=2048, out_features=2048, bias=True)
    (out_proj): Linear(in_features=2048, out_features=2048, bias=True)
  )
  (activation_dropout_module): FairseqDropout()
  (self_attn_layer_norm): LayerNorm((2048,), eps=1e-05, elementwise_affine=True)
  (fc1): Linear(in_features=2048, out_features=8192, bias=True)
  (fc2): Linear(in_features=8192, out_features=2048, bias=True)
  (final_layer_norm): LayerNorm((2048,), eps=1e-05, elementwise_affine=True)
) total_norm 288.497802734375
2023-09-14 11:29:53 | INFO | fairseq.trainer | layer TransformerDecoderLayerBase(
  (dropout_module): FairseqDropout()
  (self_attn): MultiheadAttention(
    (dropout_module): FairseqDropout()
    (k_proj): Linear(in_features=2048, out_features=2048, bias=True)
    (v_proj): Linear(in_features=2048, out_features=2048, bias=True)
    (q_proj): Linear(in_features=2048, out_features=2048, bias=True)
    (out_proj): Linear(in_features=2048, out_features=2048, bias=True)
  )
  (activation_dropout_module): FairseqDropout()
  (self_attn_layer_norm): LayerNorm((2048,), eps=1e-05, elementwise_affine=True)
  (fc1): Linear(in_features=2048, out_features=8192, bias=True)
  (fc2): Linear(in_features=8192, out_features=2048, bias=True)
  (final_layer_norm): LayerNorm((2048,), eps=1e-05, elementwise_affine=True)
) total_norm 298.9094543457031
2023-09-14 11:29:53 | INFO | fairseq.trainer | layer TransformerDecoderLayerBase(
  (dropout_module): FairseqDropout()
  (self_attn): MultiheadAttention(
    (dropout_module): FairseqDropout()
    (k_proj): Linear(in_features=2048, out_features=2048, bias=True)
    (v_proj): Linear(in_features=2048, out_features=2048, bias=True)
    (q_proj): Linear(in_features=2048, out_features=2048, bias=True)
    (out_proj): Linear(in_features=2048, out_features=2048, bias=True)
  )
  (activation_dropout_module): FairseqDropout()
  (self_attn_layer_norm): LayerNorm((2048,), eps=1e-05, elementwise_affine=True)
  (fc1): Linear(in_features=2048, out_features=8192, bias=True)
  (fc2): Linear(in_features=8192, out_features=2048, bias=True)
  (final_layer_norm): LayerNorm((2048,), eps=1e-05, elementwise_affine=True)
) total_norm 307.0920715332031
2023-09-14 11:29:53 | INFO | fairseq.trainer | layer TransformerDecoderLayerBase(
  (dropout_module): FairseqDropout()
  (self_attn): MultiheadAttention(
    (dropout_module): FairseqDropout()
    (k_proj): Linear(in_features=2048, out_features=2048, bias=True)
    (v_proj): Linear(in_features=2048, out_features=2048, bias=True)
    (q_proj): Linear(in_features=2048, out_features=2048, bias=True)
    (out_proj): Linear(in_features=2048, out_features=2048, bias=True)
  )
  (activation_dropout_module): FairseqDropout()
  (self_attn_layer_norm): LayerNorm((2048,), eps=1e-05, elementwise_affine=True)
  (fc1): Linear(in_features=2048, out_features=8192, bias=True)
  (fc2): Linear(in_features=8192, out_features=2048, bias=True)
  (final_layer_norm): LayerNorm((2048,), eps=1e-05, elementwise_affine=True)
) total_norm 324.21697998046875
2023-09-14 11:29:53 | INFO | fairseq.trainer | layer TransformerDecoderLayerBase(
  (dropout_module): FairseqDropout()
  (self_attn): MultiheadAttention(
    (dropout_module): FairseqDropout()
    (k_proj): Linear(in_features=2048, out_features=2048, bias=True)
    (v_proj): Linear(in_features=2048, out_features=2048, bias=True)
    (q_proj): Linear(in_features=2048, out_features=2048, bias=True)
    (out_proj): Linear(in_features=2048, out_features=2048, bias=True)
  )
  (activation_dropout_module): FairseqDropout()
  (self_attn_layer_norm): LayerNorm((2048,), eps=1e-05, elementwise_affine=True)
  (fc1): Linear(in_features=2048, out_features=8192, bias=True)
  (fc2): Linear(in_features=8192, out_features=2048, bias=True)
  (final_layer_norm): LayerNorm((2048,), eps=1e-05, elementwise_affine=True)
) total_norm 348.0213928222656
2023-09-14 11:29:53 | INFO | fairseq.trainer | layer TransformerDecoderLayerBase(
  (dropout_module): FairseqDropout()
  (self_attn): MultiheadAttention(
    (dropout_module): FairseqDropout()
    (k_proj): Linear(in_features=2048, out_features=2048, bias=True)
    (v_proj): Linear(in_features=2048, out_features=2048, bias=True)
    (q_proj): Linear(in_features=2048, out_features=2048, bias=True)
    (out_proj): Linear(in_features=2048, out_features=2048, bias=True)
  )
  (activation_dropout_module): FairseqDropout()
  (self_attn_layer_norm): LayerNorm((2048,), eps=1e-05, elementwise_affine=True)
  (fc1): Linear(in_features=2048, out_features=8192, bias=True)
  (fc2): Linear(in_features=8192, out_features=2048, bias=True)
  (final_layer_norm): LayerNorm((2048,), eps=1e-05, elementwise_affine=True)
) total_norm 268.23712158203125
2023-09-14 11:29:53 | INFO | fairseq.trainer | layer TransformerDecoderLayerBase(
  (dropout_module): FairseqDropout()
  (self_attn): MultiheadAttention(
    (dropout_module): FairseqDropout()
    (k_proj): Linear(in_features=2048, out_features=2048, bias=True)
    (v_proj): Linear(in_features=2048, out_features=2048, bias=True)
    (q_proj): Linear(in_features=2048, out_features=2048, bias=True)
    (out_proj): Linear(in_features=2048, out_features=2048, bias=True)
  )
  (activation_dropout_module): FairseqDropout()
  (self_attn_layer_norm): LayerNorm((2048,), eps=1e-05, elementwise_affine=True)
  (fc1): Linear(in_features=2048, out_features=8192, bias=True)
  (fc2): Linear(in_features=8192, out_features=2048, bias=True)
  (final_layer_norm): LayerNorm((2048,), eps=1e-05, elementwise_affine=True)
) total_norm 220.73190307617188
2023-09-14 11:29:53 | INFO | fairseq.trainer | layer TransformerDecoderLayerBase(
  (dropout_module): FairseqDropout()
  (self_attn): MultiheadAttention(
    (dropout_module): FairseqDropout()
    (k_proj): Linear(in_features=2048, out_features=2048, bias=True)
    (v_proj): Linear(in_features=2048, out_features=2048, bias=True)
    (q_proj): Linear(in_features=2048, out_features=2048, bias=True)
    (out_proj): Linear(in_features=2048, out_features=2048, bias=True)
  )
  (activation_dropout_module): FairseqDropout()
  (self_attn_layer_norm): LayerNorm((2048,), eps=1e-05, elementwise_affine=True)
  (fc1): Linear(in_features=2048, out_features=8192, bias=True)
  (fc2): Linear(in_features=8192, out_features=2048, bias=True)
  (final_layer_norm): LayerNorm((2048,), eps=1e-05, elementwise_affine=True)
) total_norm 195.9258270263672
2023-09-14 11:29:53 | INFO | fairseq.trainer | layer TransformerDecoderLayerBase(
  (dropout_module): FairseqDropout()
  (self_attn): MultiheadAttention(
    (dropout_module): FairseqDropout()
    (k_proj): Linear(in_features=2048, out_features=2048, bias=True)
    (v_proj): Linear(in_features=2048, out_features=2048, bias=True)
    (q_proj): Linear(in_features=2048, out_features=2048, bias=True)
    (out_proj): Linear(in_features=2048, out_features=2048, bias=True)
  )
  (activation_dropout_module): FairseqDropout()
  (self_attn_layer_norm): LayerNorm((2048,), eps=1e-05, elementwise_affine=True)
  (fc1): Linear(in_features=2048, out_features=8192, bias=True)
  (fc2): Linear(in_features=8192, out_features=2048, bias=True)
  (final_layer_norm): LayerNorm((2048,), eps=1e-05, elementwise_affine=True)
) total_norm 207.50540161132812
2023-09-14 11:29:53 | INFO | fairseq.trainer | layer TransformerDecoderLayerBase(
  (dropout_module): FairseqDropout()
  (self_attn): MultiheadAttention(
    (dropout_module): FairseqDropout()
    (k_proj): Linear(in_features=2048, out_features=2048, bias=True)
    (v_proj): Linear(in_features=2048, out_features=2048, bias=True)
    (q_proj): Linear(in_features=2048, out_features=2048, bias=True)
    (out_proj): Linear(in_features=2048, out_features=2048, bias=True)
  )
  (activation_dropout_module): FairseqDropout()
  (self_attn_layer_norm): LayerNorm((2048,), eps=1e-05, elementwise_affine=True)
  (fc1): Linear(in_features=2048, out_features=8192, bias=True)
  (fc2): Linear(in_features=8192, out_features=2048, bias=True)
  (final_layer_norm): LayerNorm((2048,), eps=1e-05, elementwise_affine=True)
) total_norm 246.4886474609375
2023-09-14 11:29:53 | INFO | fairseq.trainer | layer TransformerDecoderLayerBase(
  (dropout_module): FairseqDropout()
  (self_attn): MultiheadAttention(
    (dropout_module): FairseqDropout()
    (k_proj): Linear(in_features=2048, out_features=2048, bias=True)
    (v_proj): Linear(in_features=2048, out_features=2048, bias=True)
    (q_proj): Linear(in_features=2048, out_features=2048, bias=True)
    (out_proj): Linear(in_features=2048, out_features=2048, bias=True)
  )
  (activation_dropout_module): FairseqDropout()
  (self_attn_layer_norm): LayerNorm((2048,), eps=1e-05, elementwise_affine=True)
  (fc1): Linear(in_features=2048, out_features=8192, bias=True)
  (fc2): Linear(in_features=8192, out_features=2048, bias=True)
  (final_layer_norm): LayerNorm((2048,), eps=1e-05, elementwise_affine=True)
) total_norm 405.81585693359375
2023-09-14 11:29:53 | INFO | train_inner | epoch 001:      6 / 32 loss=464.979, sample_size=19, ntokens=20, wps=17, ups=0.85, wpb=20, bsz=1, num_updates=6, lr=0.003, gnorm=38.661, clip=100, loss_scale=4, train_wall=1, gb_free=17, wall=16
2023-09-14 11:29:55 | INFO | fairseq.trainer | layer TransformerDecoderLayerBase(
  (dropout_module): FairseqDropout()
  (self_attn): MultiheadAttention(
    (dropout_module): FairseqDropout()
    (k_proj): Linear(in_features=2048, out_features=2048, bias=True)
    (v_proj): Linear(in_features=2048, out_features=2048, bias=True)
    (q_proj): Linear(in_features=2048, out_features=2048, bias=True)
    (out_proj): Linear(in_features=2048, out_features=2048, bias=True)
  )
  (activation_dropout_module): FairseqDropout()
  (self_attn_layer_norm): LayerNorm((2048,), eps=1e-05, elementwise_affine=True)
  (fc1): Linear(in_features=2048, out_features=8192, bias=True)
  (fc2): Linear(in_features=8192, out_features=2048, bias=True)
  (final_layer_norm): LayerNorm((2048,), eps=1e-05, elementwise_affine=True)
) total_norm 14446.0224609375
2023-09-14 11:29:55 | INFO | fairseq.trainer | layer TransformerDecoderLayerBase(
  (dropout_module): FairseqDropout()
  (self_attn): MultiheadAttention(
    (dropout_module): FairseqDropout()
    (k_proj): Linear(in_features=2048, out_features=2048, bias=True)
    (v_proj): Linear(in_features=2048, out_features=2048, bias=True)
    (q_proj): Linear(in_features=2048, out_features=2048, bias=True)
    (out_proj): Linear(in_features=2048, out_features=2048, bias=True)
  )
  (activation_dropout_module): FairseqDropout()
  (self_attn_layer_norm): LayerNorm((2048,), eps=1e-05, elementwise_affine=True)
  (fc1): Linear(in_features=2048, out_features=8192, bias=True)
  (fc2): Linear(in_features=8192, out_features=2048, bias=True)
  (final_layer_norm): LayerNorm((2048,), eps=1e-05, elementwise_affine=True)
) total_norm 10552.333984375
2023-09-14 11:29:55 | INFO | fairseq.trainer | layer TransformerDecoderLayerBase(
  (dropout_module): FairseqDropout()
  (self_attn): MultiheadAttention(
    (dropout_module): FairseqDropout()
    (k_proj): Linear(in_features=2048, out_features=2048, bias=True)
    (v_proj): Linear(in_features=2048, out_features=2048, bias=True)
    (q_proj): Linear(in_features=2048, out_features=2048, bias=True)
    (out_proj): Linear(in_features=2048, out_features=2048, bias=True)
  )
  (activation_dropout_module): FairseqDropout()
  (self_attn_layer_norm): LayerNorm((2048,), eps=1e-05, elementwise_affine=True)
  (fc1): Linear(in_features=2048, out_features=8192, bias=True)
  (fc2): Linear(in_features=8192, out_features=2048, bias=True)
  (final_layer_norm): LayerNorm((2048,), eps=1e-05, elementwise_affine=True)
) total_norm 7278.92138671875
2023-09-14 11:29:55 | INFO | fairseq.trainer | layer TransformerDecoderLayerBase(
  (dropout_module): FairseqDropout()
  (self_attn): MultiheadAttention(
    (dropout_module): FairseqDropout()
    (k_proj): Linear(in_features=2048, out_features=2048, bias=True)
    (v_proj): Linear(in_features=2048, out_features=2048, bias=True)
    (q_proj): Linear(in_features=2048, out_features=2048, bias=True)
    (out_proj): Linear(in_features=2048, out_features=2048, bias=True)
  )
  (activation_dropout_module): FairseqDropout()
  (self_attn_layer_norm): LayerNorm((2048,), eps=1e-05, elementwise_affine=True)
  (fc1): Linear(in_features=2048, out_features=8192, bias=True)
  (fc2): Linear(in_features=8192, out_features=2048, bias=True)
  (final_layer_norm): LayerNorm((2048,), eps=1e-05, elementwise_affine=True)
) total_norm 4691.9091796875
2023-09-14 11:29:55 | INFO | fairseq.trainer | layer TransformerDecoderLayerBase(
  (dropout_module): FairseqDropout()
  (self_attn): MultiheadAttention(
    (dropout_module): FairseqDropout()
    (k_proj): Linear(in_features=2048, out_features=2048, bias=True)
    (v_proj): Linear(in_features=2048, out_features=2048, bias=True)
    (q_proj): Linear(in_features=2048, out_features=2048, bias=True)
    (out_proj): Linear(in_features=2048, out_features=2048, bias=True)
  )
  (activation_dropout_module): FairseqDropout()
  (self_attn_layer_norm): LayerNorm((2048,), eps=1e-05, elementwise_affine=True)
  (fc1): Linear(in_features=2048, out_features=8192, bias=True)
  (fc2): Linear(in_features=8192, out_features=2048, bias=True)
  (final_layer_norm): LayerNorm((2048,), eps=1e-05, elementwise_affine=True)
) total_norm 3226.380859375
2023-09-14 11:29:55 | INFO | fairseq.trainer | layer TransformerDecoderLayerBase(
  (dropout_module): FairseqDropout()
  (self_attn): MultiheadAttention(
    (dropout_module): FairseqDropout()
    (k_proj): Linear(in_features=2048, out_features=2048, bias=True)
    (v_proj): Linear(in_features=2048, out_features=2048, bias=True)
    (q_proj): Linear(in_features=2048, out_features=2048, bias=True)
    (out_proj): Linear(in_features=2048, out_features=2048, bias=True)
  )
  (activation_dropout_module): FairseqDropout()
  (self_attn_layer_norm): LayerNorm((2048,), eps=1e-05, elementwise_affine=True)
  (fc1): Linear(in_features=2048, out_features=8192, bias=True)
  (fc2): Linear(in_features=8192, out_features=2048, bias=True)
  (final_layer_norm): LayerNorm((2048,), eps=1e-05, elementwise_affine=True)
) total_norm 2771.42041015625
2023-09-14 11:29:55 | INFO | fairseq.trainer | layer TransformerDecoderLayerBase(
  (dropout_module): FairseqDropout()
  (self_attn): MultiheadAttention(
    (dropout_module): FairseqDropout()
    (k_proj): Linear(in_features=2048, out_features=2048, bias=True)
    (v_proj): Linear(in_features=2048, out_features=2048, bias=True)
    (q_proj): Linear(in_features=2048, out_features=2048, bias=True)
    (out_proj): Linear(in_features=2048, out_features=2048, bias=True)
  )
  (activation_dropout_module): FairseqDropout()
  (self_attn_layer_norm): LayerNorm((2048,), eps=1e-05, elementwise_affine=True)
  (fc1): Linear(in_features=2048, out_features=8192, bias=True)
  (fc2): Linear(in_features=8192, out_features=2048, bias=True)
  (final_layer_norm): LayerNorm((2048,), eps=1e-05, elementwise_affine=True)
) total_norm 1848.120361328125
2023-09-14 11:29:55 | INFO | fairseq.trainer | layer TransformerDecoderLayerBase(
  (dropout_module): FairseqDropout()
  (self_attn): MultiheadAttention(
    (dropout_module): FairseqDropout()
    (k_proj): Linear(in_features=2048, out_features=2048, bias=True)
    (v_proj): Linear(in_features=2048, out_features=2048, bias=True)
    (q_proj): Linear(in_features=2048, out_features=2048, bias=True)
    (out_proj): Linear(in_features=2048, out_features=2048, bias=True)
  )
  (activation_dropout_module): FairseqDropout()
  (self_attn_layer_norm): LayerNorm((2048,), eps=1e-05, elementwise_affine=True)
  (fc1): Linear(in_features=2048, out_features=8192, bias=True)
  (fc2): Linear(in_features=8192, out_features=2048, bias=True)
  (final_layer_norm): LayerNorm((2048,), eps=1e-05, elementwise_affine=True)
) total_norm 1327.5836181640625
2023-09-14 11:29:55 | INFO | fairseq.trainer | layer TransformerDecoderLayerBase(
  (dropout_module): FairseqDropout()
  (self_attn): MultiheadAttention(
    (dropout_module): FairseqDropout()
    (k_proj): Linear(in_features=2048, out_features=2048, bias=True)
    (v_proj): Linear(in_features=2048, out_features=2048, bias=True)
    (q_proj): Linear(in_features=2048, out_features=2048, bias=True)
    (out_proj): Linear(in_features=2048, out_features=2048, bias=True)
  )
  (activation_dropout_module): FairseqDropout()
  (self_attn_layer_norm): LayerNorm((2048,), eps=1e-05, elementwise_affine=True)
  (fc1): Linear(in_features=2048, out_features=8192, bias=True)
  (fc2): Linear(in_features=8192, out_features=2048, bias=True)
  (final_layer_norm): LayerNorm((2048,), eps=1e-05, elementwise_affine=True)
) total_norm 1147.962646484375
2023-09-14 11:29:55 | INFO | fairseq.trainer | layer TransformerDecoderLayerBase(
  (dropout_module): FairseqDropout()
  (self_attn): MultiheadAttention(
    (dropout_module): FairseqDropout()
    (k_proj): Linear(in_features=2048, out_features=2048, bias=True)
    (v_proj): Linear(in_features=2048, out_features=2048, bias=True)
    (q_proj): Linear(in_features=2048, out_features=2048, bias=True)
    (out_proj): Linear(in_features=2048, out_features=2048, bias=True)
  )
  (activation_dropout_module): FairseqDropout()
  (self_attn_layer_norm): LayerNorm((2048,), eps=1e-05, elementwise_affine=True)
  (fc1): Linear(in_features=2048, out_features=8192, bias=True)
  (fc2): Linear(in_features=8192, out_features=2048, bias=True)
  (final_layer_norm): LayerNorm((2048,), eps=1e-05, elementwise_affine=True)
) total_norm 1007.133544921875
2023-09-14 11:29:55 | INFO | fairseq.trainer | layer TransformerDecoderLayerBase(
  (dropout_module): FairseqDropout()
  (self_attn): MultiheadAttention(
    (dropout_module): FairseqDropout()
    (k_proj): Linear(in_features=2048, out_features=2048, bias=True)
    (v_proj): Linear(in_features=2048, out_features=2048, bias=True)
    (q_proj): Linear(in_features=2048, out_features=2048, bias=True)
    (out_proj): Linear(in_features=2048, out_features=2048, bias=True)
  )
  (activation_dropout_module): FairseqDropout()
  (self_attn_layer_norm): LayerNorm((2048,), eps=1e-05, elementwise_affine=True)
  (fc1): Linear(in_features=2048, out_features=8192, bias=True)
  (fc2): Linear(in_features=8192, out_features=2048, bias=True)
  (final_layer_norm): LayerNorm((2048,), eps=1e-05, elementwise_affine=True)
) total_norm 753.4091186523438
2023-09-14 11:29:55 | INFO | fairseq.trainer | layer TransformerDecoderLayerBase(
  (dropout_module): FairseqDropout()
  (self_attn): MultiheadAttention(
    (dropout_module): FairseqDropout()
    (k_proj): Linear(in_features=2048, out_features=2048, bias=True)
    (v_proj): Linear(in_features=2048, out_features=2048, bias=True)
    (q_proj): Linear(in_features=2048, out_features=2048, bias=True)
    (out_proj): Linear(in_features=2048, out_features=2048, bias=True)
  )
  (activation_dropout_module): FairseqDropout()
  (self_attn_layer_norm): LayerNorm((2048,), eps=1e-05, elementwise_affine=True)
  (fc1): Linear(in_features=2048, out_features=8192, bias=True)
  (fc2): Linear(in_features=8192, out_features=2048, bias=True)
  (final_layer_norm): LayerNorm((2048,), eps=1e-05, elementwise_affine=True)
) total_norm 642.8016357421875
2023-09-14 11:29:55 | INFO | fairseq.trainer | layer TransformerDecoderLayerBase(
  (dropout_module): FairseqDropout()
  (self_attn): MultiheadAttention(
    (dropout_module): FairseqDropout()
    (k_proj): Linear(in_features=2048, out_features=2048, bias=True)
    (v_proj): Linear(in_features=2048, out_features=2048, bias=True)
    (q_proj): Linear(in_features=2048, out_features=2048, bias=True)
    (out_proj): Linear(in_features=2048, out_features=2048, bias=True)
  )
  (activation_dropout_module): FairseqDropout()
  (self_attn_layer_norm): LayerNorm((2048,), eps=1e-05, elementwise_affine=True)
  (fc1): Linear(in_features=2048, out_features=8192, bias=True)
  (fc2): Linear(in_features=8192, out_features=2048, bias=True)
  (final_layer_norm): LayerNorm((2048,), eps=1e-05, elementwise_affine=True)
) total_norm 507.37591552734375
2023-09-14 11:29:55 | INFO | fairseq.trainer | layer TransformerDecoderLayerBase(
  (dropout_module): FairseqDropout()
  (self_attn): MultiheadAttention(
    (dropout_module): FairseqDropout()
    (k_proj): Linear(in_features=2048, out_features=2048, bias=True)
    (v_proj): Linear(in_features=2048, out_features=2048, bias=True)
    (q_proj): Linear(in_features=2048, out_features=2048, bias=True)
    (out_proj): Linear(in_features=2048, out_features=2048, bias=True)
  )
  (activation_dropout_module): FairseqDropout()
  (self_attn_layer_norm): LayerNorm((2048,), eps=1e-05, elementwise_affine=True)
  (fc1): Linear(in_features=2048, out_features=8192, bias=True)
  (fc2): Linear(in_features=8192, out_features=2048, bias=True)
  (final_layer_norm): LayerNorm((2048,), eps=1e-05, elementwise_affine=True)
) total_norm 435.70416259765625
2023-09-14 11:29:55 | INFO | fairseq.trainer | layer TransformerDecoderLayerBase(
  (dropout_module): FairseqDropout()
  (self_attn): MultiheadAttention(
    (dropout_module): FairseqDropout()
    (k_proj): Linear(in_features=2048, out_features=2048, bias=True)
    (v_proj): Linear(in_features=2048, out_features=2048, bias=True)
    (q_proj): Linear(in_features=2048, out_features=2048, bias=True)
    (out_proj): Linear(in_features=2048, out_features=2048, bias=True)
  )
  (activation_dropout_module): FairseqDropout()
  (self_attn_layer_norm): LayerNorm((2048,), eps=1e-05, elementwise_affine=True)
  (fc1): Linear(in_features=2048, out_features=8192, bias=True)
  (fc2): Linear(in_features=8192, out_features=2048, bias=True)
  (final_layer_norm): LayerNorm((2048,), eps=1e-05, elementwise_affine=True)
) total_norm 471.91143798828125
2023-09-14 11:29:55 | INFO | fairseq.trainer | layer TransformerDecoderLayerBase(
  (dropout_module): FairseqDropout()
  (self_attn): MultiheadAttention(
    (dropout_module): FairseqDropout()
    (k_proj): Linear(in_features=2048, out_features=2048, bias=True)
    (v_proj): Linear(in_features=2048, out_features=2048, bias=True)
    (q_proj): Linear(in_features=2048, out_features=2048, bias=True)
    (out_proj): Linear(in_features=2048, out_features=2048, bias=True)
  )
  (activation_dropout_module): FairseqDropout()
  (self_attn_layer_norm): LayerNorm((2048,), eps=1e-05, elementwise_affine=True)
  (fc1): Linear(in_features=2048, out_features=8192, bias=True)
  (fc2): Linear(in_features=8192, out_features=2048, bias=True)
  (final_layer_norm): LayerNorm((2048,), eps=1e-05, elementwise_affine=True)
) total_norm 527.614501953125
2023-09-14 11:29:55 | INFO | fairseq.trainer | layer TransformerDecoderLayerBase(
  (dropout_module): FairseqDropout()
  (self_attn): MultiheadAttention(
    (dropout_module): FairseqDropout()
    (k_proj): Linear(in_features=2048, out_features=2048, bias=True)
    (v_proj): Linear(in_features=2048, out_features=2048, bias=True)
    (q_proj): Linear(in_features=2048, out_features=2048, bias=True)
    (out_proj): Linear(in_features=2048, out_features=2048, bias=True)
  )
  (activation_dropout_module): FairseqDropout()
  (self_attn_layer_norm): LayerNorm((2048,), eps=1e-05, elementwise_affine=True)
  (fc1): Linear(in_features=2048, out_features=8192, bias=True)
  (fc2): Linear(in_features=8192, out_features=2048, bias=True)
  (final_layer_norm): LayerNorm((2048,), eps=1e-05, elementwise_affine=True)
) total_norm 574.2960205078125
2023-09-14 11:29:55 | INFO | fairseq.trainer | layer TransformerDecoderLayerBase(
  (dropout_module): FairseqDropout()
  (self_attn): MultiheadAttention(
    (dropout_module): FairseqDropout()
    (k_proj): Linear(in_features=2048, out_features=2048, bias=True)
    (v_proj): Linear(in_features=2048, out_features=2048, bias=True)
    (q_proj): Linear(in_features=2048, out_features=2048, bias=True)
    (out_proj): Linear(in_features=2048, out_features=2048, bias=True)
  )
  (activation_dropout_module): FairseqDropout()
  (self_attn_layer_norm): LayerNorm((2048,), eps=1e-05, elementwise_affine=True)
  (fc1): Linear(in_features=2048, out_features=8192, bias=True)
  (fc2): Linear(in_features=8192, out_features=2048, bias=True)
  (final_layer_norm): LayerNorm((2048,), eps=1e-05, elementwise_affine=True)
) total_norm 538.99169921875
2023-09-14 11:29:55 | INFO | fairseq.trainer | layer TransformerDecoderLayerBase(
  (dropout_module): FairseqDropout()
  (self_attn): MultiheadAttention(
    (dropout_module): FairseqDropout()
    (k_proj): Linear(in_features=2048, out_features=2048, bias=True)
    (v_proj): Linear(in_features=2048, out_features=2048, bias=True)
    (q_proj): Linear(in_features=2048, out_features=2048, bias=True)
    (out_proj): Linear(in_features=2048, out_features=2048, bias=True)
  )
  (activation_dropout_module): FairseqDropout()
  (self_attn_layer_norm): LayerNorm((2048,), eps=1e-05, elementwise_affine=True)
  (fc1): Linear(in_features=2048, out_features=8192, bias=True)
  (fc2): Linear(in_features=8192, out_features=2048, bias=True)
  (final_layer_norm): LayerNorm((2048,), eps=1e-05, elementwise_affine=True)
) total_norm 462.7129211425781
2023-09-14 11:29:55 | INFO | fairseq.trainer | layer TransformerDecoderLayerBase(
  (dropout_module): FairseqDropout()
  (self_attn): MultiheadAttention(
    (dropout_module): FairseqDropout()
    (k_proj): Linear(in_features=2048, out_features=2048, bias=True)
    (v_proj): Linear(in_features=2048, out_features=2048, bias=True)
    (q_proj): Linear(in_features=2048, out_features=2048, bias=True)
    (out_proj): Linear(in_features=2048, out_features=2048, bias=True)
  )
  (activation_dropout_module): FairseqDropout()
  (self_attn_layer_norm): LayerNorm((2048,), eps=1e-05, elementwise_affine=True)
  (fc1): Linear(in_features=2048, out_features=8192, bias=True)
  (fc2): Linear(in_features=8192, out_features=2048, bias=True)
  (final_layer_norm): LayerNorm((2048,), eps=1e-05, elementwise_affine=True)
) total_norm 425.9996337890625
2023-09-14 11:29:55 | INFO | fairseq.trainer | layer TransformerDecoderLayerBase(
  (dropout_module): FairseqDropout()
  (self_attn): MultiheadAttention(
    (dropout_module): FairseqDropout()
    (k_proj): Linear(in_features=2048, out_features=2048, bias=True)
    (v_proj): Linear(in_features=2048, out_features=2048, bias=True)
    (q_proj): Linear(in_features=2048, out_features=2048, bias=True)
    (out_proj): Linear(in_features=2048, out_features=2048, bias=True)
  )
  (activation_dropout_module): FairseqDropout()
  (self_attn_layer_norm): LayerNorm((2048,), eps=1e-05, elementwise_affine=True)
  (fc1): Linear(in_features=2048, out_features=8192, bias=True)
  (fc2): Linear(in_features=8192, out_features=2048, bias=True)
  (final_layer_norm): LayerNorm((2048,), eps=1e-05, elementwise_affine=True)
) total_norm 357.9523010253906
2023-09-14 11:29:55 | INFO | fairseq.trainer | layer TransformerDecoderLayerBase(
  (dropout_module): FairseqDropout()
  (self_attn): MultiheadAttention(
    (dropout_module): FairseqDropout()
    (k_proj): Linear(in_features=2048, out_features=2048, bias=True)
    (v_proj): Linear(in_features=2048, out_features=2048, bias=True)
    (q_proj): Linear(in_features=2048, out_features=2048, bias=True)
    (out_proj): Linear(in_features=2048, out_features=2048, bias=True)
  )
  (activation_dropout_module): FairseqDropout()
  (self_attn_layer_norm): LayerNorm((2048,), eps=1e-05, elementwise_affine=True)
  (fc1): Linear(in_features=2048, out_features=8192, bias=True)
  (fc2): Linear(in_features=8192, out_features=2048, bias=True)
  (final_layer_norm): LayerNorm((2048,), eps=1e-05, elementwise_affine=True)
) total_norm 365.4012451171875
2023-09-14 11:29:55 | INFO | fairseq.trainer | layer TransformerDecoderLayerBase(
  (dropout_module): FairseqDropout()
  (self_attn): MultiheadAttention(
    (dropout_module): FairseqDropout()
    (k_proj): Linear(in_features=2048, out_features=2048, bias=True)
    (v_proj): Linear(in_features=2048, out_features=2048, bias=True)
    (q_proj): Linear(in_features=2048, out_features=2048, bias=True)
    (out_proj): Linear(in_features=2048, out_features=2048, bias=True)
  )
  (activation_dropout_module): FairseqDropout()
  (self_attn_layer_norm): LayerNorm((2048,), eps=1e-05, elementwise_affine=True)
  (fc1): Linear(in_features=2048, out_features=8192, bias=True)
  (fc2): Linear(in_features=8192, out_features=2048, bias=True)
  (final_layer_norm): LayerNorm((2048,), eps=1e-05, elementwise_affine=True)
) total_norm 355.85675048828125
2023-09-14 11:29:55 | INFO | fairseq.trainer | layer TransformerDecoderLayerBase(
  (dropout_module): FairseqDropout()
  (self_attn): MultiheadAttention(
    (dropout_module): FairseqDropout()
    (k_proj): Linear(in_features=2048, out_features=2048, bias=True)
    (v_proj): Linear(in_features=2048, out_features=2048, bias=True)
    (q_proj): Linear(in_features=2048, out_features=2048, bias=True)
    (out_proj): Linear(in_features=2048, out_features=2048, bias=True)
  )
  (activation_dropout_module): FairseqDropout()
  (self_attn_layer_norm): LayerNorm((2048,), eps=1e-05, elementwise_affine=True)
  (fc1): Linear(in_features=2048, out_features=8192, bias=True)
  (fc2): Linear(in_features=8192, out_features=2048, bias=True)
  (final_layer_norm): LayerNorm((2048,), eps=1e-05, elementwise_affine=True)
) total_norm 490.5583801269531
2023-09-14 11:29:55 | INFO | train_inner | epoch 001:      7 / 32 loss=461.193, sample_size=45, ntokens=46, wps=18.2, ups=0.39, wpb=46, bsz=1, num_updates=7, lr=0.003, gnorm=38.569, clip=100, loss_scale=4, train_wall=3, gb_free=16.9, wall=19
2023-09-14 11:29:58 | INFO | fairseq.trainer | layer TransformerDecoderLayerBase(
  (dropout_module): FairseqDropout()
  (self_attn): MultiheadAttention(
    (dropout_module): FairseqDropout()
    (k_proj): Linear(in_features=2048, out_features=2048, bias=True)
    (v_proj): Linear(in_features=2048, out_features=2048, bias=True)
    (q_proj): Linear(in_features=2048, out_features=2048, bias=True)
    (out_proj): Linear(in_features=2048, out_features=2048, bias=True)
  )
  (activation_dropout_module): FairseqDropout()
  (self_attn_layer_norm): LayerNorm((2048,), eps=1e-05, elementwise_affine=True)
  (fc1): Linear(in_features=2048, out_features=8192, bias=True)
  (fc2): Linear(in_features=8192, out_features=2048, bias=True)
  (final_layer_norm): LayerNorm((2048,), eps=1e-05, elementwise_affine=True)
) total_norm 12777.2626953125
2023-09-14 11:29:58 | INFO | fairseq.trainer | layer TransformerDecoderLayerBase(
  (dropout_module): FairseqDropout()
  (self_attn): MultiheadAttention(
    (dropout_module): FairseqDropout()
    (k_proj): Linear(in_features=2048, out_features=2048, bias=True)
    (v_proj): Linear(in_features=2048, out_features=2048, bias=True)
    (q_proj): Linear(in_features=2048, out_features=2048, bias=True)
    (out_proj): Linear(in_features=2048, out_features=2048, bias=True)
  )
  (activation_dropout_module): FairseqDropout()
  (self_attn_layer_norm): LayerNorm((2048,), eps=1e-05, elementwise_affine=True)
  (fc1): Linear(in_features=2048, out_features=8192, bias=True)
  (fc2): Linear(in_features=8192, out_features=2048, bias=True)
  (final_layer_norm): LayerNorm((2048,), eps=1e-05, elementwise_affine=True)
) total_norm 9116.9951171875
2023-09-14 11:29:58 | INFO | fairseq.trainer | layer TransformerDecoderLayerBase(
  (dropout_module): FairseqDropout()
  (self_attn): MultiheadAttention(
    (dropout_module): FairseqDropout()
    (k_proj): Linear(in_features=2048, out_features=2048, bias=True)
    (v_proj): Linear(in_features=2048, out_features=2048, bias=True)
    (q_proj): Linear(in_features=2048, out_features=2048, bias=True)
    (out_proj): Linear(in_features=2048, out_features=2048, bias=True)
  )
  (activation_dropout_module): FairseqDropout()
  (self_attn_layer_norm): LayerNorm((2048,), eps=1e-05, elementwise_affine=True)
  (fc1): Linear(in_features=2048, out_features=8192, bias=True)
  (fc2): Linear(in_features=8192, out_features=2048, bias=True)
  (final_layer_norm): LayerNorm((2048,), eps=1e-05, elementwise_affine=True)
) total_norm 6596.60107421875
2023-09-14 11:29:58 | INFO | fairseq.trainer | layer TransformerDecoderLayerBase(
  (dropout_module): FairseqDropout()
  (self_attn): MultiheadAttention(
    (dropout_module): FairseqDropout()
    (k_proj): Linear(in_features=2048, out_features=2048, bias=True)
    (v_proj): Linear(in_features=2048, out_features=2048, bias=True)
    (q_proj): Linear(in_features=2048, out_features=2048, bias=True)
    (out_proj): Linear(in_features=2048, out_features=2048, bias=True)
  )
  (activation_dropout_module): FairseqDropout()
  (self_attn_layer_norm): LayerNorm((2048,), eps=1e-05, elementwise_affine=True)
  (fc1): Linear(in_features=2048, out_features=8192, bias=True)
  (fc2): Linear(in_features=8192, out_features=2048, bias=True)
  (final_layer_norm): LayerNorm((2048,), eps=1e-05, elementwise_affine=True)
) total_norm 4133.76611328125
2023-09-14 11:29:58 | INFO | fairseq.trainer | layer TransformerDecoderLayerBase(
  (dropout_module): FairseqDropout()
  (self_attn): MultiheadAttention(
    (dropout_module): FairseqDropout()
    (k_proj): Linear(in_features=2048, out_features=2048, bias=True)
    (v_proj): Linear(in_features=2048, out_features=2048, bias=True)
    (q_proj): Linear(in_features=2048, out_features=2048, bias=True)
    (out_proj): Linear(in_features=2048, out_features=2048, bias=True)
  )
  (activation_dropout_module): FairseqDropout()
  (self_attn_layer_norm): LayerNorm((2048,), eps=1e-05, elementwise_affine=True)
  (fc1): Linear(in_features=2048, out_features=8192, bias=True)
  (fc2): Linear(in_features=8192, out_features=2048, bias=True)
  (final_layer_norm): LayerNorm((2048,), eps=1e-05, elementwise_affine=True)
) total_norm 2847.390625
2023-09-14 11:29:58 | INFO | fairseq.trainer | layer TransformerDecoderLayerBase(
  (dropout_module): FairseqDropout()
  (self_attn): MultiheadAttention(
    (dropout_module): FairseqDropout()
    (k_proj): Linear(in_features=2048, out_features=2048, bias=True)
    (v_proj): Linear(in_features=2048, out_features=2048, bias=True)
…
    (out_proj): Linear(in_features=2048, out_features=2048, bias=True)
  )
  (activation_dropout_module): FairseqDropout()
  (self_attn_layer_norm): LayerNorm((2048,), eps=1e-05, elementwise_affine=True)
  (fc1): Linear(in_features=2048, out_features=8192, bias=True)
  (fc2): Linear(in_features=8192, out_features=2048, bias=True)
  (final_layer_norm): LayerNorm((2048,), eps=1e-05, elementwise_affine=True)
) total_norm 182.5355987548828
2023-09-14 11:30:40 | INFO | fairseq.trainer | layer TransformerDecoderLayerBase(
  (dropout_module): FairseqDropout()
  (self_attn): MultiheadAttention(
    (dropout_module): FairseqDropout()
    (k_proj): Linear(in_features=2048, out_features=2048, bias=True)
    (v_proj): Linear(in_features=2048, out_features=2048, bias=True)
    (q_proj): Linear(in_features=2048, out_features=2048, bias=True)
    (out_proj): Linear(in_features=2048, out_features=2048, bias=True)
  )
  (activation_dropout_module): FairseqDropout()
  (self_attn_layer_norm): LayerNorm((2048,), eps=1e-05, elementwise_affine=True)
  (fc1): Linear(in_features=2048, out_features=8192, bias=True)
  (fc2): Linear(in_features=8192, out_features=2048, bias=True)
  (final_layer_norm): LayerNorm((2048,), eps=1e-05, elementwise_affine=True)
) total_norm 179.86537170410156
2023-09-14 11:30:40 | INFO | fairseq.trainer | layer TransformerDecoderLayerBase(
  (dropout_module): FairseqDropout()
  (self_attn): MultiheadAttention(
    (dropout_module): FairseqDropout()
    (k_proj): Linear(in_features=2048, out_features=2048, bias=True)
    (v_proj): Linear(in_features=2048, out_features=2048, bias=True)
    (q_proj): Linear(in_features=2048, out_features=2048, bias=True)
    (out_proj): Linear(in_features=2048, out_features=2048, bias=True)
  )
  (activation_dropout_module): FairseqDropout()
  (self_attn_layer_norm): LayerNorm((2048,), eps=1e-05, elementwise_affine=True)
  (fc1): Linear(in_features=2048, out_features=8192, bias=True)
  (fc2): Linear(in_features=8192, out_features=2048, bias=True)
  (final_layer_norm): LayerNorm((2048,), eps=1e-05, elementwise_affine=True)
) total_norm 187.2388458251953
2023-09-14 11:30:40 | INFO | fairseq.trainer | layer TransformerDecoderLayerBase(
  (dropout_module): FairseqDropout()
  (self_attn): MultiheadAttention(
    (dropout_module): FairseqDropout()
    (k_proj): Linear(in_features=2048, out_features=2048, bias=True)
    (v_proj): Linear(in_features=2048, out_features=2048, bias=True)
    (q_proj): Linear(in_features=2048, out_features=2048, bias=True)
    (out_proj): Linear(in_features=2048, out_features=2048, bias=True)
  )
  (activation_dropout_module): FairseqDropout()
  (self_attn_layer_norm): LayerNorm((2048,), eps=1e-05, elementwise_affine=True)
  (fc1): Linear(in_features=2048, out_features=8192, bias=True)
  (fc2): Linear(in_features=8192, out_features=2048, bias=True)
  (final_layer_norm): LayerNorm((2048,), eps=1e-05, elementwise_affine=True)
) total_norm 200.71658325195312
2023-09-14 11:30:40 | INFO | fairseq.trainer | layer TransformerDecoderLayerBase(
  (dropout_module): FairseqDropout()
  (self_attn): MultiheadAttention(
    (dropout_module): FairseqDropout()
    (k_proj): Linear(in_features=2048, out_features=2048, bias=True)
    (v_proj): Linear(in_features=2048, out_features=2048, bias=True)
    (q_proj): Linear(in_features=2048, out_features=2048, bias=True)
    (out_proj): Linear(in_features=2048, out_features=2048, bias=True)
  )
  (activation_dropout_module): FairseqDropout()
  (self_attn_layer_norm): LayerNorm((2048,), eps=1e-05, elementwise_affine=True)
  (fc1): Linear(in_features=2048, out_features=8192, bias=True)
  (fc2): Linear(in_features=8192, out_features=2048, bias=True)
  (final_layer_norm): LayerNorm((2048,), eps=1e-05, elementwise_affine=True)
) total_norm 200.22787475585938
2023-09-14 11:30:40 | INFO | fairseq.trainer | layer TransformerDecoderLayerBase(
  (dropout_module): FairseqDropout()
  (self_attn): MultiheadAttention(
    (dropout_module): FairseqDropout()
    (k_proj): Linear(in_features=2048, out_features=2048, bias=True)
    (v_proj): Linear(in_features=2048, out_features=2048, bias=True)
    (q_proj): Linear(in_features=2048, out_features=2048, bias=True)
    (out_proj): Linear(in_features=2048, out_features=2048, bias=True)
  )
  (activation_dropout_module): FairseqDropout()
  (self_attn_layer_norm): LayerNorm((2048,), eps=1e-05, elementwise_affine=True)
  (fc1): Linear(in_features=2048, out_features=8192, bias=True)
  (fc2): Linear(in_features=8192, out_features=2048, bias=True)
  (final_layer_norm): LayerNorm((2048,), eps=1e-05, elementwise_affine=True)
) total_norm 166.37860107421875
2023-09-14 11:30:40 | INFO | fairseq.trainer | layer TransformerDecoderLayerBase(
  (dropout_module): FairseqDropout()
  (self_attn): MultiheadAttention(
    (dropout_module): FairseqDropout()
    (k_proj): Linear(in_features=2048, out_features=2048, bias=True)
    (v_proj): Linear(in_features=2048, out_features=2048, bias=True)
    (q_proj): Linear(in_features=2048, out_features=2048, bias=True)
    (out_proj): Linear(in_features=2048, out_features=2048, bias=True)
  )
  (activation_dropout_module): FairseqDropout()
  (self_attn_layer_norm): LayerNorm((2048,), eps=1e-05, elementwise_affine=True)
  (fc1): Linear(in_features=2048, out_features=8192, bias=True)
  (fc2): Linear(in_features=8192, out_features=2048, bias=True)
  (final_layer_norm): LayerNorm((2048,), eps=1e-05, elementwise_affine=True)
) total_norm 156.99591064453125
2023-09-14 11:30:40 | INFO | fairseq.trainer | layer TransformerDecoderLayerBase(
  (dropout_module): FairseqDropout()
  (self_attn): MultiheadAttention(
    (dropout_module): FairseqDropout()
    (k_proj): Linear(in_features=2048, out_features=2048, bias=True)
    (v_proj): Linear(in_features=2048, out_features=2048, bias=True)
    (q_proj): Linear(in_features=2048, out_features=2048, bias=True)
    (out_proj): Linear(in_features=2048, out_features=2048, bias=True)
  )
  (activation_dropout_module): FairseqDropout()
  (self_attn_layer_norm): LayerNorm((2048,), eps=1e-05, elementwise_affine=True)
  (fc1): Linear(in_features=2048, out_features=8192, bias=True)
  (fc2): Linear(in_features=8192, out_features=2048, bias=True)
  (final_layer_norm): LayerNorm((2048,), eps=1e-05, elementwise_affine=True)
) total_norm 161.509033203125
2023-09-14 11:30:40 | INFO | fairseq.trainer | layer TransformerDecoderLayerBase(
  (dropout_module): FairseqDropout()
  (self_attn): MultiheadAttention(
    (dropout_module): FairseqDropout()
    (k_proj): Linear(in_features=2048, out_features=2048, bias=True)
    (v_proj): Linear(in_features=2048, out_features=2048, bias=True)
    (q_proj): Linear(in_features=2048, out_features=2048, bias=True)
    (out_proj): Linear(in_features=2048, out_features=2048, bias=True)
  )
  (activation_dropout_module): FairseqDropout()
  (self_attn_layer_norm): LayerNorm((2048,), eps=1e-05, elementwise_affine=True)
  (fc1): Linear(in_features=2048, out_features=8192, bias=True)
  (fc2): Linear(in_features=8192, out_features=2048, bias=True)
  (final_layer_norm): LayerNorm((2048,), eps=1e-05, elementwise_affine=True)
) total_norm 183.200439453125
2023-09-14 11:30:40 | INFO | fairseq.trainer | layer TransformerDecoderLayerBase(
  (dropout_module): FairseqDropout()
  (self_attn): MultiheadAttention(
    (dropout_module): FairseqDropout()
    (k_proj): Linear(in_features=2048, out_features=2048, bias=True)
    (v_proj): Linear(in_features=2048, out_features=2048, bias=True)
    (q_proj): Linear(in_features=2048, out_features=2048, bias=True)
    (out_proj): Linear(in_features=2048, out_features=2048, bias=True)
  )
  (activation_dropout_module): FairseqDropout()
  (self_attn_layer_norm): LayerNorm((2048,), eps=1e-05, elementwise_affine=True)
  (fc1): Linear(in_features=2048, out_features=8192, bias=True)
  (fc2): Linear(in_features=8192, out_features=2048, bias=True)
  (final_layer_norm): LayerNorm((2048,), eps=1e-05, elementwise_affine=True)
) total_norm 196.4009552001953
2023-09-14 11:30:40 | INFO | fairseq.trainer | layer TransformerDecoderLayerBase(
  (dropout_module): FairseqDropout()
  (self_attn): MultiheadAttention(
    (dropout_module): FairseqDropout()
    (k_proj): Linear(in_features=2048, out_features=2048, bias=True)
    (v_proj): Linear(in_features=2048, out_features=2048, bias=True)
    (q_proj): Linear(in_features=2048, out_features=2048, bias=True)
    (out_proj): Linear(in_features=2048, out_features=2048, bias=True)
  )
  (activation_dropout_module): FairseqDropout()
  (self_attn_layer_norm): LayerNorm((2048,), eps=1e-05, elementwise_affine=True)
  (fc1): Linear(in_features=2048, out_features=8192, bias=True)
  (fc2): Linear(in_features=8192, out_features=2048, bias=True)
  (final_layer_norm): LayerNorm((2048,), eps=1e-05, elementwise_affine=True)
) total_norm 989.7958984375
2023-09-14 11:30:40 | INFO | train_inner | epoch 001:     30 / 32 loss=391.368, sample_size=32, ntokens=33, wps=19.9, ups=0.6, wpb=33, bsz=1, num_updates=30, lr=0.003, gnorm=22.157, clip=100, loss_scale=4, train_wall=2, gb_free=16.9, wall=64
2023-09-14 11:30:42 | INFO | fairseq.trainer | layer TransformerDecoderLayerBase(
  (dropout_module): FairseqDropout()
  (self_attn): MultiheadAttention(
    (dropout_module): FairseqDropout()
    (k_proj): Linear(in_features=2048, out_features=2048, bias=True)
    (v_proj): Linear(in_features=2048, out_features=2048, bias=True)
    (q_proj): Linear(in_features=2048, out_features=2048, bias=True)
    (out_proj): Linear(in_features=2048, out_features=2048, bias=True)
  )
  (activation_dropout_module): FairseqDropout()
  (self_attn_layer_norm): LayerNorm((2048,), eps=1e-05, elementwise_affine=True)
  (fc1): Linear(in_features=2048, out_features=8192, bias=True)
  (fc2): Linear(in_features=8192, out_features=2048, bias=True)
  (final_layer_norm): LayerNorm((2048,), eps=1e-05, elementwise_affine=True)
) total_norm 4278.681640625
2023-09-14 11:30:42 | INFO | fairseq.trainer | layer TransformerDecoderLayerBase(
  (dropout_module): FairseqDropout()
  (self_attn): MultiheadAttention(
    (dropout_module): FairseqDropout()
    (k_proj): Linear(in_features=2048, out_features=2048, bias=True)
    (v_proj): Linear(in_features=2048, out_features=2048, bias=True)
    (q_proj): Linear(in_features=2048, out_features=2048, bias=True)
    (out_proj): Linear(in_features=2048, out_features=2048, bias=True)
  )
  (activation_dropout_module): FairseqDropout()
  (self_attn_layer_norm): LayerNorm((2048,), eps=1e-05, elementwise_affine=True)
  (fc1): Linear(in_features=2048, out_features=8192, bias=True)
  (fc2): Linear(in_features=8192, out_features=2048, bias=True)
  (final_layer_norm): LayerNorm((2048,), eps=1e-05, elementwise_affine=True)
) total_norm 3530.978271484375
2023-09-14 11:30:42 | INFO | fairseq.trainer | layer TransformerDecoderLayerBase(
  (dropout_module): FairseqDropout()
  (self_attn): MultiheadAttention(
    (dropout_module): FairseqDropout()
    (k_proj): Linear(in_features=2048, out_features=2048, bias=True)
    (v_proj): Linear(in_features=2048, out_features=2048, bias=True)
    (q_proj): Linear(in_features=2048, out_features=2048, bias=True)
    (out_proj): Linear(in_features=2048, out_features=2048, bias=True)
  )
  (activation_dropout_module): FairseqDropout()
  (self_attn_layer_norm): LayerNorm((2048,), eps=1e-05, elementwise_affine=True)
  (fc1): Linear(in_features=2048, out_features=8192, bias=True)
  (fc2): Linear(in_features=8192, out_features=2048, bias=True)
  (final_layer_norm): LayerNorm((2048,), eps=1e-05, elementwise_affine=True)
) total_norm 728.8856811523438
2023-09-14 11:30:42 | INFO | fairseq.trainer | layer TransformerDecoderLayerBase(
  (dropout_module): FairseqDropout()
  (self_attn): MultiheadAttention(
    (dropout_module): FairseqDropout()
    (k_proj): Linear(in_features=2048, out_features=2048, bias=True)
    (v_proj): Linear(in_features=2048, out_features=2048, bias=True)
    (q_proj): Linear(in_features=2048, out_features=2048, bias=True)
    (out_proj): Linear(in_features=2048, out_features=2048, bias=True)
  )
  (activation_dropout_module): FairseqDropout()
  (self_attn_layer_norm): LayerNorm((2048,), eps=1e-05, elementwise_affine=True)
  (fc1): Linear(in_features=2048, out_features=8192, bias=True)
  (fc2): Linear(in_features=8192, out_features=2048, bias=True)
  (final_layer_norm): LayerNorm((2048,), eps=1e-05, elementwise_affine=True)
) total_norm 259.4770202636719
2023-09-14 11:30:42 | INFO | fairseq.trainer | layer TransformerDecoderLayerBase(
  (dropout_module): FairseqDropout()
  (self_attn): MultiheadAttention(
    (dropout_module): FairseqDropout()
    (k_proj): Linear(in_features=2048, out_features=2048, bias=True)
    (v_proj): Linear(in_features=2048, out_features=2048, bias=True)
    (q_proj): Linear(in_features=2048, out_features=2048, bias=True)
    (out_proj): Linear(in_features=2048, out_features=2048, bias=True)
  )
  (activation_dropout_module): FairseqDropout()
  (self_attn_layer_norm): LayerNorm((2048,), eps=1e-05, elementwise_affine=True)
  (fc1): Linear(in_features=2048, out_features=8192, bias=True)
  (fc2): Linear(in_features=8192, out_features=2048, bias=True)
  (final_layer_norm): LayerNorm((2048,), eps=1e-05, elementwise_affine=True)
) total_norm 183.96173095703125
2023-09-14 11:30:42 | INFO | fairseq.trainer | layer TransformerDecoderLayerBase(
  (dropout_module): FairseqDropout()
  (self_attn): MultiheadAttention(
    (dropout_module): FairseqDropout()
    (k_proj): Linear(in_features=2048, out_features=2048, bias=True)
    (v_proj): Linear(in_features=2048, out_features=2048, bias=True)
    (q_proj): Linear(in_features=2048, out_features=2048, bias=True)
    (out_proj): Linear(in_features=2048, out_features=2048, bias=True)
  )
  (activation_dropout_module): FairseqDropout()
  (self_attn_layer_norm): LayerNorm((2048,), eps=1e-05, elementwise_affine=True)
  (fc1): Linear(in_features=2048, out_features=8192, bias=True)
  (fc2): Linear(in_features=8192, out_features=2048, bias=True)
  (final_layer_norm): LayerNorm((2048,), eps=1e-05, elementwise_affine=True)
) total_norm 173.5946807861328
2023-09-14 11:30:42 | INFO | fairseq.trainer | layer TransformerDecoderLayerBase(
  (dropout_module): FairseqDropout()
  (self_attn): MultiheadAttention(
    (dropout_module): FairseqDropout()
    (k_proj): Linear(in_features=2048, out_features=2048, bias=True)
    (v_proj): Linear(in_features=2048, out_features=2048, bias=True)
    (q_proj): Linear(in_features=2048, out_features=2048, bias=True)
    (out_proj): Linear(in_features=2048, out_features=2048, bias=True)
  )
  (activation_dropout_module): FairseqDropout()
  (self_attn_layer_norm): LayerNorm((2048,), eps=1e-05, elementwise_affine=True)
  (fc1): Linear(in_features=2048, out_features=8192, bias=True)
  (fc2): Linear(in_features=8192, out_features=2048, bias=True)
  (final_layer_norm): LayerNorm((2048,), eps=1e-05, elementwise_affine=True)
) total_norm 193.95590209960938
2023-09-14 11:30:42 | INFO | fairseq.trainer | layer TransformerDecoderLayerBase(
  (dropout_module): FairseqDropout()
  (self_attn): MultiheadAttention(
    (dropout_module): FairseqDropout()
    (k_proj): Linear(in_features=2048, out_features=2048, bias=True)
    (v_proj): Linear(in_features=2048, out_features=2048, bias=True)
    (q_proj): Linear(in_features=2048, out_features=2048, bias=True)
    (out_proj): Linear(in_features=2048, out_features=2048, bias=True)
  )
  (activation_dropout_module): FairseqDropout()
  (self_attn_layer_norm): LayerNorm((2048,), eps=1e-05, elementwise_affine=True)
  (fc1): Linear(in_features=2048, out_features=8192, bias=True)
  (fc2): Linear(in_features=8192, out_features=2048, bias=True)
  (final_layer_norm): LayerNorm((2048,), eps=1e-05, elementwise_affine=True)
) total_norm 211.3985595703125
2023-09-14 11:30:42 | INFO | fairseq.trainer | layer TransformerDecoderLayerBase(
  (dropout_module): FairseqDropout()
  (self_attn): MultiheadAttention(
    (dropout_module): FairseqDropout()
    (k_proj): Linear(in_features=2048, out_features=2048, bias=True)
    (v_proj): Linear(in_features=2048, out_features=2048, bias=True)
    (q_proj): Linear(in_features=2048, out_features=2048, bias=True)
    (out_proj): Linear(in_features=2048, out_features=2048, bias=True)
  )
  (activation_dropout_module): FairseqDropout()
  (self_attn_layer_norm): LayerNorm((2048,), eps=1e-05, elementwise_affine=True)
  (fc1): Linear(in_features=2048, out_features=8192, bias=True)
  (fc2): Linear(in_features=8192, out_features=2048, bias=True)
  (final_layer_norm): LayerNorm((2048,), eps=1e-05, elementwise_affine=True)
) total_norm 239.71681213378906
2023-09-14 11:30:42 | INFO | fairseq.trainer | layer TransformerDecoderLayerBase(
  (dropout_module): FairseqDropout()
  (self_attn): MultiheadAttention(
    (dropout_module): FairseqDropout()
    (k_proj): Linear(in_features=2048, out_features=2048, bias=True)
    (v_proj): Linear(in_features=2048, out_features=2048, bias=True)
    (q_proj): Linear(in_features=2048, out_features=2048, bias=True)
    (out_proj): Linear(in_features=2048, out_features=2048, bias=True)
  )
  (activation_dropout_module): FairseqDropout()
  (self_attn_layer_norm): LayerNorm((2048,), eps=1e-05, elementwise_affine=True)
  (fc1): Linear(in_features=2048, out_features=8192, bias=True)
  (fc2): Linear(in_features=8192, out_features=2048, bias=True)
  (final_layer_norm): LayerNorm((2048,), eps=1e-05, elementwise_affine=True)
) total_norm 243.1130828857422
2023-09-14 11:30:42 | INFO | fairseq.trainer | layer TransformerDecoderLayerBase(
  (dropout_module): FairseqDropout()
  (self_attn): MultiheadAttention(
    (dropout_module): FairseqDropout()
    (k_proj): Linear(in_features=2048, out_features=2048, bias=True)
    (v_proj): Linear(in_features=2048, out_features=2048, bias=True)
    (q_proj): Linear(in_features=2048, out_features=2048, bias=True)
    (out_proj): Linear(in_features=2048, out_features=2048, bias=True)
  )
  (activation_dropout_module): FairseqDropout()
  (self_attn_layer_norm): LayerNorm((2048,), eps=1e-05, elementwise_affine=True)
  (fc1): Linear(in_features=2048, out_features=8192, bias=True)
  (fc2): Linear(in_features=8192, out_features=2048, bias=True)
  (final_layer_norm): LayerNorm((2048,), eps=1e-05, elementwise_affine=True)
) total_norm 216.6449432373047
2023-09-14 11:30:42 | INFO | fairseq.trainer | layer TransformerDecoderLayerBase(
  (dropout_module): FairseqDropout()
  (self_attn): MultiheadAttention(
    (dropout_module): FairseqDropout()
    (k_proj): Linear(in_features=2048, out_features=2048, bias=True)
    (v_proj): Linear(in_features=2048, out_features=2048, bias=True)
    (q_proj): Linear(in_features=2048, out_features=2048, bias=True)
    (out_proj): Linear(in_features=2048, out_features=2048, bias=True)
  )
  (activation_dropout_module): FairseqDropout()
  (self_attn_layer_norm): LayerNorm((2048,), eps=1e-05, elementwise_affine=True)
  (fc1): Linear(in_features=2048, out_features=8192, bias=True)
  (fc2): Linear(in_features=8192, out_features=2048, bias=True)
  (final_layer_norm): LayerNorm((2048,), eps=1e-05, elementwise_affine=True)
) total_norm 200.5322265625
2023-09-14 11:30:42 | INFO | fairseq.trainer | layer TransformerDecoderLayerBase(
  (dropout_module): FairseqDropout()
  (self_attn): MultiheadAttention(
    (dropout_module): FairseqDropout()
    (k_proj): Linear(in_features=2048, out_features=2048, bias=True)
    (v_proj): Linear(in_features=2048, out_features=2048, bias=True)
    (q_proj): Linear(in_features=2048, out_features=2048, bias=True)
    (out_proj): Linear(in_features=2048, out_features=2048, bias=True)
  )
  (activation_dropout_module): FairseqDropout()
  (self_attn_layer_norm): LayerNorm((2048,), eps=1e-05, elementwise_affine=True)
  (fc1): Linear(in_features=2048, out_features=8192, bias=True)
  (fc2): Linear(in_features=8192, out_features=2048, bias=True)
  (final_layer_norm): LayerNorm((2048,), eps=1e-05, elementwise_affine=True)
) total_norm 167.26541137695312
2023-09-14 11:30:42 | INFO | fairseq.trainer | layer TransformerDecoderLayerBase(
  (dropout_module): FairseqDropout()
  (self_attn): MultiheadAttention(
    (dropout_module): FairseqDropout()
    (k_proj): Linear(in_features=2048, out_features=2048, bias=True)
    (v_proj): Linear(in_features=2048, out_features=2048, bias=True)
    (q_proj): Linear(in_features=2048, out_features=2048, bias=True)
    (out_proj): Linear(in_features=2048, out_features=2048, bias=True)
  )
  (activation_dropout_module): FairseqDropout()
  (self_attn_layer_norm): LayerNorm((2048,), eps=1e-05, elementwise_affine=True)
  (fc1): Linear(in_features=2048, out_features=8192, bias=True)
  (fc2): Linear(in_features=8192, out_features=2048, bias=True)
  (final_layer_norm): LayerNorm((2048,), eps=1e-05, elementwise_affine=True)
) total_norm 151.92974853515625
2023-09-14 11:30:42 | INFO | fairseq.trainer | layer TransformerDecoderLayerBase(
  (dropout_module): FairseqDropout()
  (self_attn): MultiheadAttention(
    (dropout_module): FairseqDropout()
    (k_proj): Linear(in_features=2048, out_features=2048, bias=True)
    (v_proj): Linear(in_features=2048, out_features=2048, bias=True)
    (q_proj): Linear(in_features=2048, out_features=2048, bias=True)
    (out_proj): Linear(in_features=2048, out_features=2048, bias=True)
  )
  (activation_dropout_module): FairseqDropout()
  (self_attn_layer_norm): LayerNorm((2048,), eps=1e-05, elementwise_affine=True)
  (fc1): Linear(in_features=2048, out_features=8192, bias=True)
  (fc2): Linear(in_features=8192, out_features=2048, bias=True)
  (final_layer_norm): LayerNorm((2048,), eps=1e-05, elementwise_affine=True)
) total_norm 150.4444580078125
2023-09-14 11:30:42 | INFO | fairseq.trainer | layer TransformerDecoderLayerBase(
  (dropout_module): FairseqDropout()
  (self_attn): MultiheadAttention(
    (dropout_module): FairseqDropout()
    (k_proj): Linear(in_features=2048, out_features=2048, bias=True)
    (v_proj): Linear(in_features=2048, out_features=2048, bias=True)
    (q_proj): Linear(in_features=2048, out_features=2048, bias=True)
    (out_proj): Linear(in_features=2048, out_features=2048, bias=True)
  )
  (activation_dropout_module): FairseqDropout()
  (self_attn_layer_norm): LayerNorm((2048,), eps=1e-05, elementwise_affine=True)
  (fc1): Linear(in_features=2048, out_features=8192, bias=True)
  (fc2): Linear(in_features=8192, out_features=2048, bias=True)
  (final_layer_norm): LayerNorm((2048,), eps=1e-05, elementwise_affine=True)
) total_norm 157.23377990722656
2023-09-14 11:30:42 | INFO | fairseq.trainer | layer TransformerDecoderLayerBase(
  (dropout_module): FairseqDropout()
  (self_attn): MultiheadAttention(
    (dropout_module): FairseqDropout()
    (k_proj): Linear(in_features=2048, out_features=2048, bias=True)
    (v_proj): Linear(in_features=2048, out_features=2048, bias=True)
    (q_proj): Linear(in_features=2048, out_features=2048, bias=True)
    (out_proj): Linear(in_features=2048, out_features=2048, bias=True)
  )
  (activation_dropout_module): FairseqDropout()
  (self_attn_layer_norm): LayerNorm((2048,), eps=1e-05, elementwise_affine=True)
  (fc1): Linear(in_features=2048, out_features=8192, bias=True)
  (fc2): Linear(in_features=8192, out_features=2048, bias=True)
  (final_layer_norm): LayerNorm((2048,), eps=1e-05, elementwise_affine=True)
) total_norm 162.0054931640625
2023-09-14 11:30:42 | INFO | fairseq.trainer | layer TransformerDecoderLayerBase(
  (dropout_module): FairseqDropout()
  (self_attn): MultiheadAttention(
    (dropout_module): FairseqDropout()
    (k_proj): Linear(in_features=2048, out_features=2048, bias=True)
    (v_proj): Linear(in_features=2048, out_features=2048, bias=True)
    (q_proj): Linear(in_features=2048, out_features=2048, bias=True)
    (out_proj): Linear(in_features=2048, out_features=2048, bias=True)
  )
  (activation_dropout_module): FairseqDropout()
  (self_attn_layer_norm): LayerNorm((2048,), eps=1e-05, elementwise_affine=True)
  (fc1): Linear(in_features=2048, out_features=8192, bias=True)
  (fc2): Linear(in_features=8192, out_features=2048, bias=True)
  (final_layer_norm): LayerNorm((2048,), eps=1e-05, elementwise_affine=True)
) total_norm 161.9787139892578
2023-09-14 11:30:42 | INFO | fairseq.trainer | layer TransformerDecoderLayerBase(
  (dropout_module): FairseqDropout()
  (self_attn): MultiheadAttention(
    (dropout_module): FairseqDropout()
    (k_proj): Linear(in_features=2048, out_features=2048, bias=True)
    (v_proj): Linear(in_features=2048, out_features=2048, bias=True)
    (q_proj): Linear(in_features=2048, out_features=2048, bias=True)
    (out_proj): Linear(in_features=2048, out_features=2048, bias=True)
  )
  (activation_dropout_module): FairseqDropout()
  (self_attn_layer_norm): LayerNorm((2048,), eps=1e-05, elementwise_affine=True)
  (fc1): Linear(in_features=2048, out_features=8192, bias=True)
  (fc2): Linear(in_features=8192, out_features=2048, bias=True)
  (final_layer_norm): LayerNorm((2048,), eps=1e-05, elementwise_affine=True)
) total_norm 131.55886840820312
2023-09-14 11:30:42 | INFO | fairseq.trainer | layer TransformerDecoderLayerBase(
  (dropout_module): FairseqDropout()
  (self_attn): MultiheadAttention(
    (dropout_module): FairseqDropout()
    (k_proj): Linear(in_features=2048, out_features=2048, bias=True)
    (v_proj): Linear(in_features=2048, out_features=2048, bias=True)
    (q_proj): Linear(in_features=2048, out_features=2048, bias=True)
    (out_proj): Linear(in_features=2048, out_features=2048, bias=True)
  )
  (activation_dropout_module): FairseqDropout()
  (self_attn_layer_norm): LayerNorm((2048,), eps=1e-05, elementwise_affine=True)
  (fc1): Linear(in_features=2048, out_features=8192, bias=True)
  (fc2): Linear(in_features=8192, out_features=2048, bias=True)
  (final_layer_norm): LayerNorm((2048,), eps=1e-05, elementwise_affine=True)
) total_norm 126.5461196899414
2023-09-14 11:30:42 | INFO | fairseq.trainer | layer TransformerDecoderLayerBase(
  (dropout_module): FairseqDropout()
  (self_attn): MultiheadAttention(
    (dropout_module): FairseqDropout()
    (k_proj): Linear(in_features=2048, out_features=2048, bias=True)
    (v_proj): Linear(in_features=2048, out_features=2048, bias=True)
    (q_proj): Linear(in_features=2048, out_features=2048, bias=True)
    (out_proj): Linear(in_features=2048, out_features=2048, bias=True)
  )
  (activation_dropout_module): FairseqDropout()
  (self_attn_layer_norm): LayerNorm((2048,), eps=1e-05, elementwise_affine=True)
  (fc1): Linear(in_features=2048, out_features=8192, bias=True)
  (fc2): Linear(in_features=8192, out_features=2048, bias=True)
  (final_layer_norm): LayerNorm((2048,), eps=1e-05, elementwise_affine=True)
) total_norm 130.0097198486328
2023-09-14 11:30:42 | INFO | fairseq.trainer | layer TransformerDecoderLayerBase(
  (dropout_module): FairseqDropout()
  (self_attn): MultiheadAttention(
    (dropout_module): FairseqDropout()
    (k_proj): Linear(in_features=2048, out_features=2048, bias=True)
    (v_proj): Linear(in_features=2048, out_features=2048, bias=True)
    (q_proj): Linear(in_features=2048, out_features=2048, bias=True)
    (out_proj): Linear(in_features=2048, out_features=2048, bias=True)
  )
  (activation_dropout_module): FairseqDropout()
  (self_attn_layer_norm): LayerNorm((2048,), eps=1e-05, elementwise_affine=True)
  (fc1): Linear(in_features=2048, out_features=8192, bias=True)
  (fc2): Linear(in_features=8192, out_features=2048, bias=True)
  (final_layer_norm): LayerNorm((2048,), eps=1e-05, elementwise_affine=True)
) total_norm 150.82705688476562
2023-09-14 11:30:42 | INFO | fairseq.trainer | layer TransformerDecoderLayerBase(
  (dropout_module): FairseqDropout()
  (self_attn): MultiheadAttention(
    (dropout_module): FairseqDropout()
    (k_proj): Linear(in_features=2048, out_features=2048, bias=True)
    (v_proj): Linear(in_features=2048, out_features=2048, bias=True)
    (q_proj): Linear(in_features=2048, out_features=2048, bias=True)
    (out_proj): Linear(in_features=2048, out_features=2048, bias=True)
  )
  (activation_dropout_module): FairseqDropout()
  (self_attn_layer_norm): LayerNorm((2048,), eps=1e-05, elementwise_affine=True)
  (fc1): Linear(in_features=2048, out_features=8192, bias=True)
  (fc2): Linear(in_features=8192, out_features=2048, bias=True)
  (final_layer_norm): LayerNorm((2048,), eps=1e-05, elementwise_affine=True)
) total_norm 162.43502807617188
2023-09-14 11:30:42 | INFO | fairseq.trainer | layer TransformerDecoderLayerBase(
  (dropout_module): FairseqDropout()
  (self_attn): MultiheadAttention(
    (dropout_module): FairseqDropout()
    (k_proj): Linear(in_features=2048, out_features=2048, bias=True)
    (v_proj): Linear(in_features=2048, out_features=2048, bias=True)
    (q_proj): Linear(in_features=2048, out_features=2048, bias=True)
    (out_proj): Linear(in_features=2048, out_features=2048, bias=True)
  )
  (activation_dropout_module): FairseqDropout()
  (self_attn_layer_norm): LayerNorm((2048,), eps=1e-05, elementwise_affine=True)
  (fc1): Linear(in_features=2048, out_features=8192, bias=True)
  (fc2): Linear(in_features=8192, out_features=2048, bias=True)
  (final_layer_norm): LayerNorm((2048,), eps=1e-05, elementwise_affine=True)
) total_norm 762.5165405273438
2023-09-14 11:30:42 | INFO | train_inner | epoch 001:     31 / 32 loss=380.246, sample_size=25, ntokens=26, wps=19.9, ups=0.76, wpb=26, bsz=1, num_updates=31, lr=0.003, gnorm=20.148, clip=100, loss_scale=4, train_wall=1, gb_free=17, wall=65
2023-09-14 11:30:43 | INFO | fairseq.trainer | layer TransformerDecoderLayerBase(
  (dropout_module): FairseqDropout()
  (self_attn): MultiheadAttention(
    (dropout_module): FairseqDropout()
    (k_proj): Linear(in_features=2048, out_features=2048, bias=True)
    (v_proj): Linear(in_features=2048, out_features=2048, bias=True)
    (q_proj): Linear(in_features=2048, out_features=2048, bias=True)
    (out_proj): Linear(in_features=2048, out_features=2048, bias=True)
  )
  (activation_dropout_module): FairseqDropout()
  (self_attn_layer_norm): LayerNorm((2048,), eps=1e-05, elementwise_affine=True)
  (fc1): Linear(in_features=2048, out_features=8192, bias=True)
  (fc2): Linear(in_features=8192, out_features=2048, bias=True)
  (final_layer_norm): LayerNorm((2048,), eps=1e-05, elementwise_affine=True)
) total_norm 3288.207763671875
2023-09-14 11:30:43 | INFO | fairseq.trainer | layer TransformerDecoderLayerBase(
  (dropout_module): FairseqDropout()
  (self_attn): MultiheadAttention(
    (dropout_module): FairseqDropout()
    (k_proj): Linear(in_features=2048, out_features=2048, bias=True)
    (v_proj): Linear(in_features=2048, out_features=2048, bias=True)
    (q_proj): Linear(in_features=2048, out_features=2048, bias=True)
    (out_proj): Linear(in_features=2048, out_features=2048, bias=True)
  )
  (activation_dropout_module): FairseqDropout()
  (self_attn_layer_norm): LayerNorm((2048,), eps=1e-05, elementwise_affine=True)
  (fc1): Linear(in_features=2048, out_features=8192, bias=True)
  (fc2): Linear(in_features=8192, out_features=2048, bias=True)
  (final_layer_norm): LayerNorm((2048,), eps=1e-05, elementwise_affine=True)
) total_norm 2672.25146484375
2023-09-14 11:30:43 | INFO | fairseq.trainer | layer TransformerDecoderLayerBase(
  (dropout_module): FairseqDropout()
  (self_attn): MultiheadAttention(
    (dropout_module): FairseqDropout()
    (k_proj): Linear(in_features=2048, out_features=2048, bias=True)
    (v_proj): Linear(in_features=2048, out_features=2048, bias=True)
    (q_proj): Linear(in_features=2048, out_features=2048, bias=True)
    (out_proj): Linear(in_features=2048, out_features=2048, bias=True)
  )
  (activation_dropout_module): FairseqDropout()
  (self_attn_layer_norm): LayerNorm((2048,), eps=1e-05, elementwise_affine=True)
  (fc1): Linear(in_features=2048, out_features=8192, bias=True)
  (fc2): Linear(in_features=8192, out_features=2048, bias=True)
  (final_layer_norm): LayerNorm((2048,), eps=1e-05, elementwise_affine=True)
) total_norm 394.08917236328125
2023-09-14 11:30:43 | INFO | fairseq.trainer | layer TransformerDecoderLayerBase(
  (dropout_module): FairseqDropout()
  (self_attn): MultiheadAttention(
    (dropout_module): FairseqDropout()
    (k_proj): Linear(in_features=2048, out_features=2048, bias=True)
    (v_proj): Linear(in_features=2048, out_features=2048, bias=True)
    (q_proj): Linear(in_features=2048, out_features=2048, bias=True)
    (out_proj): Linear(in_features=2048, out_features=2048, bias=True)
  )
  (activation_dropout_module): FairseqDropout()
  (self_attn_layer_norm): LayerNorm((2048,), eps=1e-05, elementwise_affine=True)
  (fc1): Linear(in_features=2048, out_features=8192, bias=True)
  (fc2): Linear(in_features=8192, out_features=2048, bias=True)
  (final_layer_norm): LayerNorm((2048,), eps=1e-05, elementwise_affine=True)
) total_norm 255.5728302001953
2023-09-14 11:30:43 | INFO | fairseq.trainer | layer TransformerDecoderLayerBase(
  (dropout_module): FairseqDropout()
  (self_attn): MultiheadAttention(
    (dropout_module): FairseqDropout()
    (k_proj): Linear(in_features=2048, out_features=2048, bias=True)
    (v_proj): Linear(in_features=2048, out_features=2048, bias=True)
    (q_proj): Linear(in_features=2048, out_features=2048, bias=True)
    (out_proj): Linear(in_features=2048, out_features=2048, bias=True)
  )
  (activation_dropout_module): FairseqDropout()
  (self_attn_layer_norm): LayerNorm((2048,), eps=1e-05, elementwise_affine=True)
  (fc1): Linear(in_features=2048, out_features=8192, bias=True)
  (fc2): Linear(in_features=8192, out_features=2048, bias=True)
  (final_layer_norm): LayerNorm((2048,), eps=1e-05, elementwise_affine=True)
) total_norm 181.9224090576172
2023-09-14 11:30:43 | INFO | fairseq.trainer | layer TransformerDecoderLayerBase(
  (dropout_module): FairseqDropout()
  (self_attn): MultiheadAttention(
    (dropout_module): FairseqDropout()
    (k_proj): Linear(in_features=2048, out_features=2048, bias=True)
    (v_proj): Linear(in_features=2048, out_features=2048, bias=True)
    (q_proj): Linear(in_features=2048, out_features=2048, bias=True)
    (out_proj): Linear(in_features=2048, out_features=2048, bias=True)
  )
  (activation_dropout_module): FairseqDropout()
  (self_attn_layer_norm): LayerNorm((2048,), eps=1e-05, elementwise_affine=True)
  (fc1): Linear(in_features=2048, out_features=8192, bias=True)
  (fc2): Linear(in_features=8192, out_features=2048, bias=True)
  (final_layer_norm): LayerNorm((2048,), eps=1e-05, elementwise_affine=True)
) total_norm 162.70089721679688
2023-09-14 11:30:43 | INFO | fairseq.trainer | layer TransformerDecoderLayerBase(
  (dropout_module): FairseqDropout()
  (self_attn): MultiheadAttention(
    (dropout_module): FairseqDropout()
    (k_proj): Linear(in_features=2048, out_features=2048, bias=True)
    (v_proj): Linear(in_features=2048, out_features=2048, bias=True)
    (q_proj): Linear(in_features=2048, out_features=2048, bias=True)
    (out_proj): Linear(in_features=2048, out_features=2048, bias=True)
  )
  (activation_dropout_module): FairseqDropout()
  (self_attn_layer_norm): LayerNorm((2048,), eps=1e-05, elementwise_affine=True)
  (fc1): Linear(in_features=2048, out_features=8192, bias=True)
  (fc2): Linear(in_features=8192, out_features=2048, bias=True)
  (final_layer_norm): LayerNorm((2048,), eps=1e-05, elementwise_affine=True)
) total_norm 183.71665954589844
2023-09-14 11:30:43 | INFO | fairseq.trainer | layer TransformerDecoderLayerBase(
  (dropout_module): FairseqDropout()
  (self_attn): MultiheadAttention(
    (dropout_module): FairseqDropout()
    (k_proj): Linear(in_features=2048, out_features=2048, bias=True)
    (v_proj): Linear(in_features=2048, out_features=2048, bias=True)
    (q_proj): Linear(in_features=2048, out_features=2048, bias=True)
    (out_proj): Linear(in_features=2048, out_features=2048, bias=True)
  )
  (activation_dropout_module): FairseqDropout()
  (self_attn_layer_norm): LayerNorm((2048,), eps=1e-05, elementwise_affine=True)
  (fc1): Linear(in_features=2048, out_features=8192, bias=True)
  (fc2): Linear(in_features=8192, out_features=2048, bias=True)
  (final_layer_norm): LayerNorm((2048,), eps=1e-05, elementwise_affine=True)
) total_norm 205.82542419433594
2023-09-14 11:30:43 | INFO | fairseq.trainer | layer TransformerDecoderLayerBase(
  (dropout_module): FairseqDropout()
  (self_attn): MultiheadAttention(
    (dropout_module): FairseqDropout()
    (k_proj): Linear(in_features=2048, out_features=2048, bias=True)
    (v_proj): Linear(in_features=2048, out_features=2048, bias=True)
    (q_proj): Linear(in_features=2048, out_features=2048, bias=True)
    (out_proj): Linear(in_features=2048, out_features=2048, bias=True)
  )
  (activation_dropout_module): FairseqDropout()
  (self_attn_layer_norm): LayerNorm((2048,), eps=1e-05, elementwise_affine=True)
  (fc1): Linear(in_features=2048, out_features=8192, bias=True)
  (fc2): Linear(in_features=8192, out_features=2048, bias=True)
  (final_layer_norm): LayerNorm((2048,), eps=1e-05, elementwise_affine=True)
) total_norm 243.56605529785156
2023-09-14 11:30:43 | INFO | fairseq.trainer | layer TransformerDecoderLayerBase(
  (dropout_module): FairseqDropout()
  (self_attn): MultiheadAttention(
    (dropout_module): FairseqDropout()
    (k_proj): Linear(in_features=2048, out_features=2048, bias=True)
    (v_proj): Linear(in_features=2048, out_features=2048, bias=True)
    (q_proj): Linear(in_features=2048, out_features=2048, bias=True)
    (out_proj): Linear(in_features=2048, out_features=2048, bias=True)
  )
  (activation_dropout_module): FairseqDropout()
  (self_attn_layer_norm): LayerNorm((2048,), eps=1e-05, elementwise_affine=True)
  (fc1): Linear(in_features=2048, out_features=8192, bias=True)
  (fc2): Linear(in_features=8192, out_features=2048, bias=True)
  (final_layer_norm): LayerNorm((2048,), eps=1e-05, elementwise_affine=True)
) total_norm 240.96780395507812
2023-09-14 11:30:43 | INFO | fairseq.trainer | layer TransformerDecoderLayerBase(
  (dropout_module): FairseqDropout()
  (self_attn): MultiheadAttention(
    (dropout_module): FairseqDropout()
    (k_proj): Linear(in_features=2048, out_features=2048, bias=True)
    (v_proj): Linear(in_features=2048, out_features=2048, bias=True)
    (q_proj): Linear(in_features=2048, out_features=2048, bias=True)
    (out_proj): Linear(in_features=2048, out_features=2048, bias=True)
  )
  (activation_dropout_module): FairseqDropout()
  (self_attn_layer_norm): LayerNorm((2048,), eps=1e-05, elementwise_affine=True)
  (fc1): Linear(in_features=2048, out_features=8192, bias=True)
  (fc2): Linear(in_features=8192, out_features=2048, bias=True)
  (final_layer_norm): LayerNorm((2048,), eps=1e-05, elementwise_affine=True)
) total_norm 220.0579376220703
2023-09-14 11:30:43 | INFO | fairseq.trainer | layer TransformerDecoderLayerBase(
  (dropout_module): FairseqDropout()
  (self_attn): MultiheadAttention(
    (dropout_module): FairseqDropout()
    (k_proj): Linear(in_features=2048, out_features=2048, bias=True)
    (v_proj): Linear(in_features=2048, out_features=2048, bias=True)
    (q_proj): Linear(in_features=2048, out_features=2048, bias=True)
    (out_proj): Linear(in_features=2048, out_features=2048, bias=True)
  )
  (activation_dropout_module): FairseqDropout()
  (self_attn_layer_norm): LayerNorm((2048,), eps=1e-05, elementwise_affine=True)
  (fc1): Linear(in_features=2048, out_features=8192, bias=True)
  (fc2): Linear(in_features=8192, out_features=2048, bias=True)
  (final_layer_norm): LayerNorm((2048,), eps=1e-05, elementwise_affine=True)
) total_norm 210.8411865234375
2023-09-14 11:30:43 | INFO | fairseq.trainer | layer TransformerDecoderLayerBase(
  (dropout_module): FairseqDropout()
  (self_attn): MultiheadAttention(
    (dropout_module): FairseqDropout()
    (k_proj): Linear(in_features=2048, out_features=2048, bias=True)
    (v_proj): Linear(in_features=2048, out_features=2048, bias=True)
    (q_proj): Linear(in_features=2048, out_features=2048, bias=True)
    (out_proj): Linear(in_features=2048, out_features=2048, bias=True)
  )
  (activation_dropout_module): FairseqDropout()
  (self_attn_layer_norm): LayerNorm((2048,), eps=1e-05, elementwise_affine=True)
  (fc1): Linear(in_features=2048, out_features=8192, bias=True)
  (fc2): Linear(in_features=8192, out_features=2048, bias=True)
  (final_layer_norm): LayerNorm((2048,), eps=1e-05, elementwise_affine=True)
) total_norm 172.9512939453125
2023-09-14 11:30:43 | INFO | fairseq.trainer | layer TransformerDecoderLayerBase(
  (dropout_module): FairseqDropout()
  (self_attn): MultiheadAttention(
    (dropout_module): FairseqDropout()
    (k_proj): Linear(in_features=2048, out_features=2048, bias=True)
    (v_proj): Linear(in_features=2048, out_features=2048, bias=True)
    (q_proj): Linear(in_features=2048, out_features=2048, bias=True)
    (out_proj): Linear(in_features=2048, out_features=2048, bias=True)
  )
  (activation_dropout_module): FairseqDropout()
  (self_attn_layer_norm): LayerNorm((2048,), eps=1e-05, elementwise_affine=True)
  (fc1): Linear(in_features=2048, out_features=8192, bias=True)
  (fc2): Linear(in_features=8192, out_features=2048, bias=True)
  (final_layer_norm): LayerNorm((2048,), eps=1e-05, elementwise_affine=True)
) total_norm 154.8912811279297
2023-09-14 11:30:43 | INFO | fairseq.trainer | layer TransformerDecoderLayerBase(
  (dropout_module): FairseqDropout()
  (self_attn): MultiheadAttention(
    (dropout_module): FairseqDropout()
    (k_proj): Linear(in_features=2048, out_features=2048, bias=True)
    (v_proj): Linear(in_features=2048, out_features=2048, bias=True)
    (q_proj): Linear(in_features=2048, out_features=2048, bias=True)
    (out_proj): Linear(in_features=2048, out_features=2048, bias=True)
  )
  (activation_dropout_module): FairseqDropout()
  (self_attn_layer_norm): LayerNorm((2048,), eps=1e-05, elementwise_affine=True)
  (fc1): Linear(in_features=2048, out_features=8192, bias=True)
  (fc2): Linear(in_features=8192, out_features=2048, bias=True)
  (final_layer_norm): LayerNorm((2048,), eps=1e-05, elementwise_affine=True)
) total_norm 155.84327697753906
2023-09-14 11:30:43 | INFO | fairseq.trainer | layer TransformerDecoderLayerBase(
  (dropout_module): FairseqDropout()
  (self_attn): MultiheadAttention(
    (dropout_module): FairseqDropout()
    (k_proj): Linear(in_features=2048, out_features=2048, bias=True)
    (v_proj): Linear(in_features=2048, out_features=2048, bias=True)
    (q_proj): Linear(in_features=2048, out_features=2048, bias=True)
    (out_proj): Linear(in_features=2048, out_features=2048, bias=True)
  )
  (activation_dropout_module): FairseqDropout()
  (self_attn_layer_norm): LayerNorm((2048,), eps=1e-05, elementwise_affine=True)
  (fc1): Linear(in_features=2048, out_features=8192, bias=True)
  (fc2): Linear(in_features=8192, out_features=2048, bias=True)
  (final_layer_norm): LayerNorm((2048,), eps=1e-05, elementwise_affine=True)
) total_norm 164.25357055664062
2023-09-14 11:30:43 | INFO | fairseq.trainer | layer TransformerDecoderLayerBase(
  (dropout_module): FairseqDropout()
  (self_attn): MultiheadAttention(
    (dropout_module): FairseqDropout()
    (k_proj): Linear(in_features=2048, out_features=2048, bias=True)
    (v_proj): Linear(in_features=2048, out_features=2048, bias=True)
    (q_proj): Linear(in_features=2048, out_features=2048, bias=True)
    (out_proj): Linear(in_features=2048, out_features=2048, bias=True)
  )
  (activation_dropout_module): FairseqDropout()
  (self_attn_layer_norm): LayerNorm((2048,), eps=1e-05, elementwise_affine=True)
  (fc1): Linear(in_features=2048, out_features=8192, bias=True)
  (fc2): Linear(in_features=8192, out_features=2048, bias=True)
  (final_layer_norm): LayerNorm((2048,), eps=1e-05, elementwise_affine=True)
) total_norm 178.52981567382812
2023-09-14 11:30:43 | INFO | fairseq.trainer | layer TransformerDecoderLayerBase(
  (dropout_module): FairseqDropout()
  (self_attn): MultiheadAttention(
    (dropout_module): FairseqDropout()
    (k_proj): Linear(in_features=2048, out_features=2048, bias=True)
    (v_proj): Linear(in_features=2048, out_features=2048, bias=True)
    (q_proj): Linear(in_features=2048, out_features=2048, bias=True)
    (out_proj): Linear(in_features=2048, out_features=2048, bias=True)
  )
  (activation_dropout_module): FairseqDropout()
  (self_attn_layer_norm): LayerNorm((2048,), eps=1e-05, elementwise_affine=True)
  (fc1): Linear(in_features=2048, out_features=8192, bias=True)
  (fc2): Linear(in_features=8192, out_features=2048, bias=True)
  (final_layer_norm): LayerNorm((2048,), eps=1e-05, elementwise_affine=True)
) total_norm 179.0448760986328
2023-09-14 11:30:43 | INFO | fairseq.trainer | layer TransformerDecoderLayerBase(
  (dropout_module): FairseqDropout()
  (self_attn): MultiheadAttention(
    (dropout_module): FairseqDropout()
    (k_proj): Linear(in_features=2048, out_features=2048, bias=True)
    (v_proj): Linear(in_features=2048, out_features=2048, bias=True)
    (q_proj): Linear(in_features=2048, out_features=2048, bias=True)
    (out_proj): Linear(in_features=2048, out_features=2048, bias=True)
  )
  (activation_dropout_module): FairseqDropout()
  (self_attn_layer_norm): LayerNorm((2048,), eps=1e-05, elementwise_affine=True)
  (fc1): Linear(in_features=2048, out_features=8192, bias=True)
  (fc2): Linear(in_features=8192, out_features=2048, bias=True)
  (final_layer_norm): LayerNorm((2048,), eps=1e-05, elementwise_affine=True)
) total_norm 144.79417419433594
2023-09-14 11:30:43 | INFO | fairseq.trainer | layer TransformerDecoderLayerBase(
  (dropout_module): FairseqDropout()
  (self_attn): MultiheadAttention(
    (dropout_module): FairseqDropout()
    (k_proj): Linear(in_features=2048, out_features=2048, bias=True)
    (v_proj): Linear(in_features=2048, out_features=2048, bias=True)
    (q_proj): Linear(in_features=2048, out_features=2048, bias=True)
    (out_proj): Linear(in_features=2048, out_features=2048, bias=True)
  )
  (activation_dropout_module): FairseqDropout()
  (self_attn_layer_norm): LayerNorm((2048,), eps=1e-05, elementwise_affine=True)
  (fc1): Linear(in_features=2048, out_features=8192, bias=True)
  (fc2): Linear(in_features=8192, out_features=2048, bias=True)
  (final_layer_norm): LayerNorm((2048,), eps=1e-05, elementwise_affine=True)
) total_norm 138.5948486328125
2023-09-14 11:30:43 | INFO | fairseq.trainer | layer TransformerDecoderLayerBase(
  (dropout_module): FairseqDropout()
  (self_attn): MultiheadAttention(
    (dropout_module): FairseqDropout()
    (k_proj): Linear(in_features=2048, out_features=2048, bias=True)
    (v_proj): Linear(in_features=2048, out_features=2048, bias=True)
    (q_proj): Linear(in_features=2048, out_features=2048, bias=True)
    (out_proj): Linear(in_features=2048, out_features=2048, bias=True)
  )
  (activation_dropout_module): FairseqDropout()
  (self_attn_layer_norm): LayerNorm((2048,), eps=1e-05, elementwise_affine=True)
  (fc1): Linear(in_features=2048, out_features=8192, bias=True)
  (fc2): Linear(in_features=8192, out_features=2048, bias=True)
  (final_layer_norm): LayerNorm((2048,), eps=1e-05, elementwise_affine=True)
) total_norm 141.40545654296875
2023-09-14 11:30:43 | INFO | fairseq.trainer | layer TransformerDecoderLayerBase(
  (dropout_module): FairseqDropout()
  (self_attn): MultiheadAttention(
    (dropout_module): FairseqDropout()
    (k_proj): Linear(in_features=2048, out_features=2048, bias=True)
    (v_proj): Linear(in_features=2048, out_features=2048, bias=True)
    (q_proj): Linear(in_features=2048, out_features=2048, bias=True)
    (out_proj): Linear(in_features=2048, out_features=2048, bias=True)
  )
  (activation_dropout_module): FairseqDropout()
  (self_attn_layer_norm): LayerNorm((2048,), eps=1e-05, elementwise_affine=True)
  (fc1): Linear(in_features=2048, out_features=8192, bias=True)
  (fc2): Linear(in_features=8192, out_features=2048, bias=True)
  (final_layer_norm): LayerNorm((2048,), eps=1e-05, elementwise_affine=True)
) total_norm 168.16754150390625
2023-09-14 11:30:43 | INFO | fairseq.trainer | layer TransformerDecoderLayerBase(
  (dropout_module): FairseqDropout()
  (self_attn): MultiheadAttention(
    (dropout_module): FairseqDropout()
    (k_proj): Linear(in_features=2048, out_features=2048, bias=True)
    (v_proj): Linear(in_features=2048, out_features=2048, bias=True)
    (q_proj): Linear(in_features=2048, out_features=2048, bias=True)
    (out_proj): Linear(in_features=2048, out_features=2048, bias=True)
  )
  (activation_dropout_module): FairseqDropout()
  (self_attn_layer_norm): LayerNorm((2048,), eps=1e-05, elementwise_affine=True)
  (fc1): Linear(in_features=2048, out_features=8192, bias=True)
  (fc2): Linear(in_features=8192, out_features=2048, bias=True)
  (final_layer_norm): LayerNorm((2048,), eps=1e-05, elementwise_affine=True)
) total_norm 173.5421142578125
2023-09-14 11:30:43 | INFO | fairseq.trainer | layer TransformerDecoderLayerBase(
  (dropout_module): FairseqDropout()
  (self_attn): MultiheadAttention(
    (dropout_module): FairseqDropout()
    (k_proj): Linear(in_features=2048, out_features=2048, bias=True)
    (v_proj): Linear(in_features=2048, out_features=2048, bias=True)
    (q_proj): Linear(in_features=2048, out_features=2048, bias=True)
    (out_proj): Linear(in_features=2048, out_features=2048, bias=True)
  )
  (activation_dropout_module): FairseqDropout()
  (self_attn_layer_norm): LayerNorm((2048,), eps=1e-05, elementwise_affine=True)
  (fc1): Linear(in_features=2048, out_features=8192, bias=True)
  (fc2): Linear(in_features=8192, out_features=2048, bias=True)
  (final_layer_norm): LayerNorm((2048,), eps=1e-05, elementwise_affine=True)
) total_norm 631.7230224609375
2023-09-14 11:30:43 | INFO | train_inner | epoch 001:     32 / 32 loss=353.541, sample_size=25, ntokens=26, wps=18.9, ups=0.73, wpb=26, bsz=1, num_updates=32, lr=0.003, gnorm=16.032, clip=100, loss_scale=4, train_wall=1, gb_free=17, wall=66
2023-09-14 11:30:43 | INFO | fairseq.checkpoint_utils | Preparing to save checkpoint for epoch 1 @ 32 updates
…
